{"format": "layers-model", "generatedBy": "keras v2.4.0", "convertedBy": "TensorFlow.js Converter v2.4.0", "modelTopology": {"keras_version": "2.4.0", "backend": "tensorflow", "model_config": {"class_name": "Functional", "config": {"name": "functional_1", "layers": [{"class_name": "InputLayer", "config": {"batch_input_shape": [null, 3, 512, 512], "dtype": "float32", "sparse": false, "ragged": false, "name": "input_1"}, "name": "input_1", "inbound_nodes": []}, {"class_name": "ZeroPadding2D", "config": {"name": "zero_padding2d", "trainable": true, "dtype": "float32", "padding": [[3, 3], [3, 3]], "data_format": "channels_first"}, "name": "zero_padding2d", "inbound_nodes": [[["input_1", 0, 0, {}]]]}, {"class_name": "Conv2D", "config": {"name": "conv1", "trainable": true, "dtype": "float32", "filters": 64, "kernel_size": [7, 7], "strides": [2, 2], "padding": "valid", "data_format": "channels_first", "dilation_rate": [1, 1], "groups": 1, "activation": "linear", "use_bias": false, "kernel_initializer": {"class_name": "GlorotUniform", "config": {"seed": null}}, "bias_initializer": {"class_name": "Zeros", "config": {}}, "kernel_regularizer": null, "bias_regularizer": null, "activity_regularizer": null, "kernel_constraint": null, "bias_constraint": null}, "name": "conv1", "inbound_nodes": [[["zero_padding2d", 0, 0, {}]]]}, {"class_name": "BatchNormalization", "config": {"name": "bn_conv1", "trainable": true, "dtype": "float32", "axis": [1], "momentum": 0.1, "epsilon": 1e-05, "center": true, "scale": true, "beta_initializer": {"class_name": "Zeros", "config": {}}, "gamma_initializer": {"class_name": "Ones", "config": {}}, "moving_mean_initializer": {"class_name": "Zeros", "config": {}}, "moving_variance_initializer": {"class_name": "Ones", "config": {}}, "beta_regularizer": null, "gamma_regularizer": null, "beta_constraint": null, "gamma_constraint": null}, "name": "bn_conv1", "inbound_nodes": [[["conv1", 0, 0, {}]]]}, {"class_name": "Activation", "config": {"name": "activation", "trainable": true, "dtype": "float32", "activation": "relu"}, "name": "activation", "inbound_nodes": [[["bn_conv1", 0, 0, {}]]]}, {"class_name": "ZeroPadding2D", "config": {"name": "zero_padding2d_1", "trainable": true, "dtype": "float32", "padding": [[1, 1], [1, 1]], "data_format": "channels_first"}, "name": "zero_padding2d_1", "inbound_nodes": [[["activation", 0, 0, {}]]]}, {"class_name": "MaxPooling2D", "config": {"name": "max_pooling2d", "trainable": true, "dtype": "float32", "pool_size": [3, 3], "padding": "valid", "strides": [2, 2], "data_format": "channels_first"}, "name": "max_pooling2d", "inbound_nodes": [[["zero_padding2d_1", 0, 0, {}]]]}, {"class_name": "Conv2D", "config": {"name": "res2a_branch2a", "trainable": true, "dtype": "float32", "filters": 256, "kernel_size": [1, 1], "strides": [1, 1], "padding": "valid", "data_format": "channels_first", "dilation_rate": [1, 1], "groups": 1, "activation": "linear", "use_bias": false, "kernel_initializer": {"class_name": "GlorotUniform", "config": {"seed": null}}, "bias_initializer": {"class_name": "Zeros", "config": {}}, "kernel_regularizer": null, "bias_regularizer": null, "activity_regularizer": null, "kernel_constraint": null, "bias_constraint": null}, "name": "res2a_branch2a", "inbound_nodes": [[["max_pooling2d", 0, 0, {}]]]}, {"class_name": "BatchNormalization", "config": {"name": "bn2a_branch2a", "trainable": true, "dtype": "float32", "axis": [1], "momentum": 0.1, "epsilon": 1e-05, "center": true, "scale": true, "beta_initializer": {"class_name": "Zeros", "config": {}}, "gamma_initializer": {"class_name": "Ones", "config": {}}, "moving_mean_initializer": {"class_name": "Zeros", "config": {}}, "moving_variance_initializer": {"class_name": "Ones", "config": {}}, "beta_regularizer": null, "gamma_regularizer": null, "beta_constraint": null, "gamma_constraint": null}, "name": "bn2a_branch2a", "inbound_nodes": [[["res2a_branch2a", 0, 0, {}]]]}, {"class_name": "Activation", "config": {"name": "activation_1", "trainable": true, "dtype": "float32", "activation": "relu"}, "name": "activation_1", "inbound_nodes": [[["bn2a_branch2a", 0, 0, {}]]]}, {"class_name": "Conv2D", "config": {"name": "res2a_branch2b", "trainable": true, "dtype": "float32", "filters": 64, "kernel_size": [3, 3], "strides": [1, 1], "padding": "same", "data_format": "channels_first", "dilation_rate": [1, 1], "groups": 1, "activation": "linear", "use_bias": false, "kernel_initializer": {"class_name": "GlorotUniform", "config": {"seed": null}}, "bias_initializer": {"class_name": "Zeros", "config": {}}, "kernel_regularizer": null, "bias_regularizer": null, "activity_regularizer": null, "kernel_constraint": null, "bias_constraint": null}, "name": "res2a_branch2b", "inbound_nodes": [[["activation_1", 0, 0, {}]]]}, {"class_name": "BatchNormalization", "config": {"name": "bn2a_branch2b", "trainable": true, "dtype": "float32", "axis": [1], "momentum": 0.1, "epsilon": 1e-05, "center": true, "scale": true, "beta_initializer": {"class_name": "Zeros", "config": {}}, "gamma_initializer": {"class_name": "Ones", "config": {}}, "moving_mean_initializer": {"class_name": "Zeros", "config": {}}, "moving_variance_initializer": {"class_name": "Ones", "config": {}}, "beta_regularizer": null, "gamma_regularizer": null, "beta_constraint": null, "gamma_constraint": null}, "name": "bn2a_branch2b", "inbound_nodes": [[["res2a_branch2b", 0, 0, {}]]]}, {"class_name": "Activation", "config": {"name": "activation_2", "trainable": true, "dtype": "float32", "activation": "relu"}, "name": "activation_2", "inbound_nodes": [[["bn2a_branch2b", 0, 0, {}]]]}, {"class_name": "Conv2D", "config": {"name": "res2a_branch2c", "trainable": true, "dtype": "float32", "filters": 64, "kernel_size": [1, 1], "strides": [1, 1], "padding": "valid", "data_format": "channels_first", "dilation_rate": [1, 1], "groups": 1, "activation": "linear", "use_bias": false, "kernel_initializer": {"class_name": "GlorotUniform", "config": {"seed": null}}, "bias_initializer": {"class_name": "Zeros", "config": {}}, "kernel_regularizer": null, "bias_regularizer": null, "activity_regularizer": null, "kernel_constraint": null, "bias_constraint": null}, "name": "res2a_branch2c", "inbound_nodes": [[["activation_2", 0, 0, {}]]]}, {"class_name": "Conv2D", "config": {"name": "res2a_branch1", "trainable": true, "dtype": "float32", "filters": 64, "kernel_size": [1, 1], "strides": [1, 1], "padding": "valid", "data_format": "channels_first", "dilation_rate": [1, 1], "groups": 1, "activation": "linear", "use_bias": false, "kernel_initializer": {"class_name": "GlorotUniform", "config": {"seed": null}}, "bias_initializer": {"class_name": "Zeros", "config": {}}, "kernel_regularizer": null, "bias_regularizer": null, "activity_regularizer": null, "kernel_constraint": null, "bias_constraint": null}, "name": "res2a_branch1", "inbound_nodes": [[["max_pooling2d", 0, 0, {}]]]}, {"class_name": "BatchNormalization", "config": {"name": "bn2a_branch2c", "trainable": true, "dtype": "float32", "axis": [1], "momentum": 0.1, "epsilon": 1e-05, "center": true, "scale": true, "beta_initializer": {"class_name": "Zeros", "config": {}}, "gamma_initializer": {"class_name": "Ones", "config": {}}, "moving_mean_initializer": {"class_name": "Zeros", "config": {}}, "moving_variance_initializer": {"class_name": "Ones", "config": {}}, "beta_regularizer": null, "gamma_regularizer": null, "beta_constraint": null, "gamma_constraint": null}, "name": "bn2a_branch2c", "inbound_nodes": [[["res2a_branch2c", 0, 0, {}]]]}, {"class_name": "BatchNormalization", "config": {"name": "bn2a_branch1", "trainable": true, "dtype": "float32", "axis": [1], "momentum": 0.1, "epsilon": 1e-05, "center": true, "scale": true, "beta_initializer": {"class_name": "Zeros", "config": {}}, "gamma_initializer": {"class_name": "Ones", "config": {}}, "moving_mean_initializer": {"class_name": "Zeros", "config": {}}, "moving_variance_initializer": {"class_name": "Ones", "config": {}}, "beta_regularizer": null, "gamma_regularizer": null, "beta_constraint": null, "gamma_constraint": null}, "name": "bn2a_branch1", "inbound_nodes": [[["res2a_branch1", 0, 0, {}]]]}, {"class_name": "Add", "config": {"name": "add", "trainable": true, "dtype": "float32"}, "name": "add", "inbound_nodes": [[["bn2a_branch2c", 0, 0, {}], ["bn2a_branch1", 0, 0, {}]]]}, {"class_name": "Activation", "config": {"name": "activation_3", "trainable": true, "dtype": "float32", "activation": "relu"}, "name": "activation_3", "inbound_nodes": [[["add", 0, 0, {}]]]}, {"class_name": "Conv2D", "config": {"name": "res2b_branch2a", "trainable": true, "dtype": "float32", "filters": 256, "kernel_size": [1, 1], "strides": [1, 1], "padding": "valid", "data_format": "channels_first", "dilation_rate": [1, 1], "groups": 1, "activation": "linear", "use_bias": false, "kernel_initializer": {"class_name": "GlorotUniform", "config": {"seed": null}}, "bias_initializer": {"class_name": "Zeros", "config": {}}, "kernel_regularizer": null, "bias_regularizer": null, "activity_regularizer": null, "kernel_constraint": null, "bias_constraint": null}, "name": "res2b_branch2a", "inbound_nodes": [[["activation_3", 0, 0, {}]]]}, {"class_name": "BatchNormalization", "config": {"name": "bn2b_branch2a", "trainable": true, "dtype": "float32", "axis": [1], "momentum": 0.1, "epsilon": 1e-05, "center": true, "scale": true, "beta_initializer": {"class_name": "Zeros", "config": {}}, "gamma_initializer": {"class_name": "Ones", "config": {}}, "moving_mean_initializer": {"class_name": "Zeros", "config": {}}, "moving_variance_initializer": {"class_name": "Ones", "config": {}}, "beta_regularizer": null, "gamma_regularizer": null, "beta_constraint": null, "gamma_constraint": null}, "name": "bn2b_branch2a", "inbound_nodes": [[["res2b_branch2a", 0, 0, {}]]]}, {"class_name": "Activation", "config": {"name": "activation_4", "trainable": true, "dtype": "float32", "activation": "relu"}, "name": "activation_4", "inbound_nodes": [[["bn2b_branch2a", 0, 0, {}]]]}, {"class_name": "Conv2D", "config": {"name": "res2b_branch2b", "trainable": true, "dtype": "float32", "filters": 64, "kernel_size": [3, 3], "strides": [1, 1], "padding": "same", "data_format": "channels_first", "dilation_rate": [1, 1], "groups": 1, "activation": "linear", "use_bias": false, "kernel_initializer": {"class_name": "GlorotUniform", "config": {"seed": null}}, "bias_initializer": {"class_name": "Zeros", "config": {}}, "kernel_regularizer": null, "bias_regularizer": null, "activity_regularizer": null, "kernel_constraint": null, "bias_constraint": null}, "name": "res2b_branch2b", "inbound_nodes": [[["activation_4", 0, 0, {}]]]}, {"class_name": "BatchNormalization", "config": {"name": "bn2b_branch2b", "trainable": true, "dtype": "float32", "axis": [1], "momentum": 0.1, "epsilon": 1e-05, "center": true, "scale": true, "beta_initializer": {"class_name": "Zeros", "config": {}}, "gamma_initializer": {"class_name": "Ones", "config": {}}, "moving_mean_initializer": {"class_name": "Zeros", "config": {}}, "moving_variance_initializer": {"class_name": "Ones", "config": {}}, "beta_regularizer": null, "gamma_regularizer": null, "beta_constraint": null, "gamma_constraint": null}, "name": "bn2b_branch2b", "inbound_nodes": [[["res2b_branch2b", 0, 0, {}]]]}, {"class_name": "Activation", "config": {"name": "activation_5", "trainable": true, "dtype": "float32", "activation": "relu"}, "name": "activation_5", "inbound_nodes": [[["bn2b_branch2b", 0, 0, {}]]]}, {"class_name": "Conv2D", "config": {"name": "res2b_branch2c", "trainable": true, "dtype": "float32", "filters": 64, "kernel_size": [1, 1], "strides": [1, 1], "padding": "valid", "data_format": "channels_first", "dilation_rate": [1, 1], "groups": 1, "activation": "linear", "use_bias": false, "kernel_initializer": {"class_name": "GlorotUniform", "config": {"seed": null}}, "bias_initializer": {"class_name": "Zeros", "config": {}}, "kernel_regularizer": null, "bias_regularizer": null, "activity_regularizer": null, "kernel_constraint": null, "bias_constraint": null}, "name": "res2b_branch2c", "inbound_nodes": [[["activation_5", 0, 0, {}]]]}, {"class_name": "BatchNormalization", "config": {"name": "bn2b_branch2c", "trainable": true, "dtype": "float32", "axis": [1], "momentum": 0.1, "epsilon": 1e-05, "center": true, "scale": true, "beta_initializer": {"class_name": "Zeros", "config": {}}, "gamma_initializer": {"class_name": "Ones", "config": {}}, "moving_mean_initializer": {"class_name": "Zeros", "config": {}}, "moving_variance_initializer": {"class_name": "Ones", "config": {}}, "beta_regularizer": null, "gamma_regularizer": null, "beta_constraint": null, "gamma_constraint": null}, "name": "bn2b_branch2c", "inbound_nodes": [[["res2b_branch2c", 0, 0, {}]]]}, {"class_name": "Add", "config": {"name": "add_1", "trainable": true, "dtype": "float32"}, "name": "add_1", "inbound_nodes": [[["bn2b_branch2c", 0, 0, {}], ["activation_3", 0, 0, {}]]]}, {"class_name": "Activation", "config": {"name": "activation_6", "trainable": true, "dtype": "float32", "activation": "relu"}, "name": "activation_6", "inbound_nodes": [[["add_1", 0, 0, {}]]]}, {"class_name": "Conv2D", "config": {"name": "res2c_branch2a", "trainable": true, "dtype": "float32", "filters": 256, "kernel_size": [1, 1], "strides": [1, 1], "padding": "valid", "data_format": "channels_first", "dilation_rate": [1, 1], "groups": 1, "activation": "linear", "use_bias": false, "kernel_initializer": {"class_name": "GlorotUniform", "config": {"seed": null}}, "bias_initializer": {"class_name": "Zeros", "config": {}}, "kernel_regularizer": null, "bias_regularizer": null, "activity_regularizer": null, "kernel_constraint": null, "bias_constraint": null}, "name": "res2c_branch2a", "inbound_nodes": [[["activation_6", 0, 0, {}]]]}, {"class_name": "BatchNormalization", "config": {"name": "bn2c_branch2a", "trainable": true, "dtype": "float32", "axis": [1], "momentum": 0.1, "epsilon": 1e-05, "center": true, "scale": true, "beta_initializer": {"class_name": "Zeros", "config": {}}, "gamma_initializer": {"class_name": "Ones", "config": {}}, "moving_mean_initializer": {"class_name": "Zeros", "config": {}}, "moving_variance_initializer": {"class_name": "Ones", "config": {}}, "beta_regularizer": null, "gamma_regularizer": null, "beta_constraint": null, "gamma_constraint": null}, "name": "bn2c_branch2a", "inbound_nodes": [[["res2c_branch2a", 0, 0, {}]]]}, {"class_name": "Activation", "config": {"name": "activation_7", "trainable": true, "dtype": "float32", "activation": "relu"}, "name": "activation_7", "inbound_nodes": [[["bn2c_branch2a", 0, 0, {}]]]}, {"class_name": "Conv2D", "config": {"name": "res2c_branch2b", "trainable": true, "dtype": "float32", "filters": 64, "kernel_size": [3, 3], "strides": [1, 1], "padding": "same", "data_format": "channels_first", "dilation_rate": [1, 1], "groups": 1, "activation": "linear", "use_bias": false, "kernel_initializer": {"class_name": "GlorotUniform", "config": {"seed": null}}, "bias_initializer": {"class_name": "Zeros", "config": {}}, "kernel_regularizer": null, "bias_regularizer": null, "activity_regularizer": null, "kernel_constraint": null, "bias_constraint": null}, "name": "res2c_branch2b", "inbound_nodes": [[["activation_7", 0, 0, {}]]]}, {"class_name": "BatchNormalization", "config": {"name": "bn2c_branch2b", "trainable": true, "dtype": "float32", "axis": [1], "momentum": 0.1, "epsilon": 1e-05, "center": true, "scale": true, "beta_initializer": {"class_name": "Zeros", "config": {}}, "gamma_initializer": {"class_name": "Ones", "config": {}}, "moving_mean_initializer": {"class_name": "Zeros", "config": {}}, "moving_variance_initializer": {"class_name": "Ones", "config": {}}, "beta_regularizer": null, "gamma_regularizer": null, "beta_constraint": null, "gamma_constraint": null}, "name": "bn2c_branch2b", "inbound_nodes": [[["res2c_branch2b", 0, 0, {}]]]}, {"class_name": "Activation", "config": {"name": "activation_8", "trainable": true, "dtype": "float32", "activation": "relu"}, "name": "activation_8", "inbound_nodes": [[["bn2c_branch2b", 0, 0, {}]]]}, {"class_name": "Conv2D", "config": {"name": "res2c_branch2c", "trainable": true, "dtype": "float32", "filters": 64, "kernel_size": [1, 1], "strides": [1, 1], "padding": "valid", "data_format": "channels_first", "dilation_rate": [1, 1], "groups": 1, "activation": "linear", "use_bias": false, "kernel_initializer": {"class_name": "GlorotUniform", "config": {"seed": null}}, "bias_initializer": {"class_name": "Zeros", "config": {}}, "kernel_regularizer": null, "bias_regularizer": null, "activity_regularizer": null, "kernel_constraint": null, "bias_constraint": null}, "name": "res2c_branch2c", "inbound_nodes": [[["activation_8", 0, 0, {}]]]}, {"class_name": "BatchNormalization", "config": {"name": "bn2c_branch2c", "trainable": true, "dtype": "float32", "axis": [1], "momentum": 0.1, "epsilon": 1e-05, "center": true, "scale": true, "beta_initializer": {"class_name": "Zeros", "config": {}}, "gamma_initializer": {"class_name": "Ones", "config": {}}, "moving_mean_initializer": {"class_name": "Zeros", "config": {}}, "moving_variance_initializer": {"class_name": "Ones", "config": {}}, "beta_regularizer": null, "gamma_regularizer": null, "beta_constraint": null, "gamma_constraint": null}, "name": "bn2c_branch2c", "inbound_nodes": [[["res2c_branch2c", 0, 0, {}]]]}, {"class_name": "Add", "config": {"name": "add_2", "trainable": true, "dtype": "float32"}, "name": "add_2", "inbound_nodes": [[["bn2c_branch2c", 0, 0, {}], ["activation_6", 0, 0, {}]]]}, {"class_name": "Activation", "config": {"name": "activation_9", "trainable": true, "dtype": "float32", "activation": "relu"}, "name": "activation_9", "inbound_nodes": [[["add_2", 0, 0, {}]]]}, {"class_name": "Conv2D", "config": {"name": "res3a_branch2a", "trainable": true, "dtype": "float32", "filters": 256, "kernel_size": [1, 1], "strides": [2, 2], "padding": "valid", "data_format": "channels_first", "dilation_rate": [1, 1], "groups": 1, "activation": "linear", "use_bias": false, "kernel_initializer": {"class_name": "GlorotUniform", "config": {"seed": null}}, "bias_initializer": {"class_name": "Zeros", "config": {}}, "kernel_regularizer": null, "bias_regularizer": null, "activity_regularizer": null, "kernel_constraint": null, "bias_constraint": null}, "name": "res3a_branch2a", "inbound_nodes": [[["activation_9", 0, 0, {}]]]}, {"class_name": "BatchNormalization", "config": {"name": "bn3a_branch2a", "trainable": true, "dtype": "float32", "axis": [1], "momentum": 0.1, "epsilon": 1e-05, "center": true, "scale": true, "beta_initializer": {"class_name": "Zeros", "config": {}}, "gamma_initializer": {"class_name": "Ones", "config": {}}, "moving_mean_initializer": {"class_name": "Zeros", "config": {}}, "moving_variance_initializer": {"class_name": "Ones", "config": {}}, "beta_regularizer": null, "gamma_regularizer": null, "beta_constraint": null, "gamma_constraint": null}, "name": "bn3a_branch2a", "inbound_nodes": [[["res3a_branch2a", 0, 0, {}]]]}, {"class_name": "Activation", "config": {"name": "activation_10", "trainable": true, "dtype": "float32", "activation": "relu"}, "name": "activation_10", "inbound_nodes": [[["bn3a_branch2a", 0, 0, {}]]]}, {"class_name": "Conv2D", "config": {"name": "res3a_branch2b", "trainable": true, "dtype": "float32", "filters": 128, "kernel_size": [3, 3], "strides": [1, 1], "padding": "same", "data_format": "channels_first", "dilation_rate": [1, 1], "groups": 1, "activation": "linear", "use_bias": false, "kernel_initializer": {"class_name": "GlorotUniform", "config": {"seed": null}}, "bias_initializer": {"class_name": "Zeros", "config": {}}, "kernel_regularizer": null, "bias_regularizer": null, "activity_regularizer": null, "kernel_constraint": null, "bias_constraint": null}, "name": "res3a_branch2b", "inbound_nodes": [[["activation_10", 0, 0, {}]]]}, {"class_name": "BatchNormalization", "config": {"name": "bn3a_branch2b", "trainable": true, "dtype": "float32", "axis": [1], "momentum": 0.1, "epsilon": 1e-05, "center": true, "scale": true, "beta_initializer": {"class_name": "Zeros", "config": {}}, "gamma_initializer": {"class_name": "Ones", "config": {}}, "moving_mean_initializer": {"class_name": "Zeros", "config": {}}, "moving_variance_initializer": {"class_name": "Ones", "config": {}}, "beta_regularizer": null, "gamma_regularizer": null, "beta_constraint": null, "gamma_constraint": null}, "name": "bn3a_branch2b", "inbound_nodes": [[["res3a_branch2b", 0, 0, {}]]]}, {"class_name": "Activation", "config": {"name": "activation_11", "trainable": true, "dtype": "float32", "activation": "relu"}, "name": "activation_11", "inbound_nodes": [[["bn3a_branch2b", 0, 0, {}]]]}, {"class_name": "Conv2D", "config": {"name": "res3a_branch2c", "trainable": true, "dtype": "float32", "filters": 128, "kernel_size": [1, 1], "strides": [1, 1], "padding": "valid", "data_format": "channels_first", "dilation_rate": [1, 1], "groups": 1, "activation": "linear", "use_bias": false, "kernel_initializer": {"class_name": "GlorotUniform", "config": {"seed": null}}, "bias_initializer": {"class_name": "Zeros", "config": {}}, "kernel_regularizer": null, "bias_regularizer": null, "activity_regularizer": null, "kernel_constraint": null, "bias_constraint": null}, "name": "res3a_branch2c", "inbound_nodes": [[["activation_11", 0, 0, {}]]]}, {"class_name": "Conv2D", "config": {"name": "res3a_branch1", "trainable": true, "dtype": "float32", "filters": 128, "kernel_size": [1, 1], "strides": [2, 2], "padding": "valid", "data_format": "channels_first", "dilation_rate": [1, 1], "groups": 1, "activation": "linear", "use_bias": false, "kernel_initializer": {"class_name": "GlorotUniform", "config": {"seed": null}}, "bias_initializer": {"class_name": "Zeros", "config": {}}, "kernel_regularizer": null, "bias_regularizer": null, "activity_regularizer": null, "kernel_constraint": null, "bias_constraint": null}, "name": "res3a_branch1", "inbound_nodes": [[["activation_9", 0, 0, {}]]]}, {"class_name": "BatchNormalization", "config": {"name": "bn3a_branch2c", "trainable": true, "dtype": "float32", "axis": [1], "momentum": 0.1, "epsilon": 1e-05, "center": true, "scale": true, "beta_initializer": {"class_name": "Zeros", "config": {}}, "gamma_initializer": {"class_name": "Ones", "config": {}}, "moving_mean_initializer": {"class_name": "Zeros", "config": {}}, "moving_variance_initializer": {"class_name": "Ones", "config": {}}, "beta_regularizer": null, "gamma_regularizer": null, "beta_constraint": null, "gamma_constraint": null}, "name": "bn3a_branch2c", "inbound_nodes": [[["res3a_branch2c", 0, 0, {}]]]}, {"class_name": "BatchNormalization", "config": {"name": "bn3a_branch1", "trainable": true, "dtype": "float32", "axis": [1], "momentum": 0.1, "epsilon": 1e-05, "center": true, "scale": true, "beta_initializer": {"class_name": "Zeros", "config": {}}, "gamma_initializer": {"class_name": "Ones", "config": {}}, "moving_mean_initializer": {"class_name": "Zeros", "config": {}}, "moving_variance_initializer": {"class_name": "Ones", "config": {}}, "beta_regularizer": null, "gamma_regularizer": null, "beta_constraint": null, "gamma_constraint": null}, "name": "bn3a_branch1", "inbound_nodes": [[["res3a_branch1", 0, 0, {}]]]}, {"class_name": "Add", "config": {"name": "add_3", "trainable": true, "dtype": "float32"}, "name": "add_3", "inbound_nodes": [[["bn3a_branch2c", 0, 0, {}], ["bn3a_branch1", 0, 0, {}]]]}, {"class_name": "Activation", "config": {"name": "activation_12", "trainable": true, "dtype": "float32", "activation": "relu"}, "name": "activation_12", "inbound_nodes": [[["add_3", 0, 0, {}]]]}, {"class_name": "Conv2D", "config": {"name": "res3b_branch2a", "trainable": true, "dtype": "float32", "filters": 256, "kernel_size": [1, 1], "strides": [1, 1], "padding": "valid", "data_format": "channels_first", "dilation_rate": [1, 1], "groups": 1, "activation": "linear", "use_bias": false, "kernel_initializer": {"class_name": "GlorotUniform", "config": {"seed": null}}, "bias_initializer": {"class_name": "Zeros", "config": {}}, "kernel_regularizer": null, "bias_regularizer": null, "activity_regularizer": null, "kernel_constraint": null, "bias_constraint": null}, "name": "res3b_branch2a", "inbound_nodes": [[["activation_12", 0, 0, {}]]]}, {"class_name": "BatchNormalization", "config": {"name": "bn3b_branch2a", "trainable": true, "dtype": "float32", "axis": [1], "momentum": 0.1, "epsilon": 1e-05, "center": true, "scale": true, "beta_initializer": {"class_name": "Zeros", "config": {}}, "gamma_initializer": {"class_name": "Ones", "config": {}}, "moving_mean_initializer": {"class_name": "Zeros", "config": {}}, "moving_variance_initializer": {"class_name": "Ones", "config": {}}, "beta_regularizer": null, "gamma_regularizer": null, "beta_constraint": null, "gamma_constraint": null}, "name": "bn3b_branch2a", "inbound_nodes": [[["res3b_branch2a", 0, 0, {}]]]}, {"class_name": "Activation", "config": {"name": "activation_13", "trainable": true, "dtype": "float32", "activation": "relu"}, "name": "activation_13", "inbound_nodes": [[["bn3b_branch2a", 0, 0, {}]]]}, {"class_name": "Conv2D", "config": {"name": "res3b_branch2b", "trainable": true, "dtype": "float32", "filters": 128, "kernel_size": [3, 3], "strides": [1, 1], "padding": "same", "data_format": "channels_first", "dilation_rate": [1, 1], "groups": 1, "activation": "linear", "use_bias": false, "kernel_initializer": {"class_name": "GlorotUniform", "config": {"seed": null}}, "bias_initializer": {"class_name": "Zeros", "config": {}}, "kernel_regularizer": null, "bias_regularizer": null, "activity_regularizer": null, "kernel_constraint": null, "bias_constraint": null}, "name": "res3b_branch2b", "inbound_nodes": [[["activation_13", 0, 0, {}]]]}, {"class_name": "BatchNormalization", "config": {"name": "bn3b_branch2b", "trainable": true, "dtype": "float32", "axis": [1], "momentum": 0.1, "epsilon": 1e-05, "center": true, "scale": true, "beta_initializer": {"class_name": "Zeros", "config": {}}, "gamma_initializer": {"class_name": "Ones", "config": {}}, "moving_mean_initializer": {"class_name": "Zeros", "config": {}}, "moving_variance_initializer": {"class_name": "Ones", "config": {}}, "beta_regularizer": null, "gamma_regularizer": null, "beta_constraint": null, "gamma_constraint": null}, "name": "bn3b_branch2b", "inbound_nodes": [[["res3b_branch2b", 0, 0, {}]]]}, {"class_name": "Activation", "config": {"name": "activation_14", "trainable": true, "dtype": "float32", "activation": "relu"}, "name": "activation_14", "inbound_nodes": [[["bn3b_branch2b", 0, 0, {}]]]}, {"class_name": "Conv2D", "config": {"name": "res3b_branch2c", "trainable": true, "dtype": "float32", "filters": 128, "kernel_size": [1, 1], "strides": [1, 1], "padding": "valid", "data_format": "channels_first", "dilation_rate": [1, 1], "groups": 1, "activation": "linear", "use_bias": false, "kernel_initializer": {"class_name": "GlorotUniform", "config": {"seed": null}}, "bias_initializer": {"class_name": "Zeros", "config": {}}, "kernel_regularizer": null, "bias_regularizer": null, "activity_regularizer": null, "kernel_constraint": null, "bias_constraint": null}, "name": "res3b_branch2c", "inbound_nodes": [[["activation_14", 0, 0, {}]]]}, {"class_name": "BatchNormalization", "config": {"name": "bn3b_branch2c", "trainable": true, "dtype": "float32", "axis": [1], "momentum": 0.1, "epsilon": 1e-05, "center": true, "scale": true, "beta_initializer": {"class_name": "Zeros", "config": {}}, "gamma_initializer": {"class_name": "Ones", "config": {}}, "moving_mean_initializer": {"class_name": "Zeros", "config": {}}, "moving_variance_initializer": {"class_name": "Ones", "config": {}}, "beta_regularizer": null, "gamma_regularizer": null, "beta_constraint": null, "gamma_constraint": null}, "name": "bn3b_branch2c", "inbound_nodes": [[["res3b_branch2c", 0, 0, {}]]]}, {"class_name": "Add", "config": {"name": "add_4", "trainable": true, "dtype": "float32"}, "name": "add_4", "inbound_nodes": [[["bn3b_branch2c", 0, 0, {}], ["activation_12", 0, 0, {}]]]}, {"class_name": "Activation", "config": {"name": "activation_15", "trainable": true, "dtype": "float32", "activation": "relu"}, "name": "activation_15", "inbound_nodes": [[["add_4", 0, 0, {}]]]}, {"class_name": "Conv2D", "config": {"name": "res3c_branch2a", "trainable": true, "dtype": "float32", "filters": 256, "kernel_size": [1, 1], "strides": [1, 1], "padding": "valid", "data_format": "channels_first", "dilation_rate": [1, 1], "groups": 1, "activation": "linear", "use_bias": false, "kernel_initializer": {"class_name": "GlorotUniform", "config": {"seed": null}}, "bias_initializer": {"class_name": "Zeros", "config": {}}, "kernel_regularizer": null, "bias_regularizer": null, "activity_regularizer": null, "kernel_constraint": null, "bias_constraint": null}, "name": "res3c_branch2a", "inbound_nodes": [[["activation_15", 0, 0, {}]]]}, {"class_name": "BatchNormalization", "config": {"name": "bn3c_branch2a", "trainable": true, "dtype": "float32", "axis": [1], "momentum": 0.1, "epsilon": 1e-05, "center": true, "scale": true, "beta_initializer": {"class_name": "Zeros", "config": {}}, "gamma_initializer": {"class_name": "Ones", "config": {}}, "moving_mean_initializer": {"class_name": "Zeros", "config": {}}, "moving_variance_initializer": {"class_name": "Ones", "config": {}}, "beta_regularizer": null, "gamma_regularizer": null, "beta_constraint": null, "gamma_constraint": null}, "name": "bn3c_branch2a", "inbound_nodes": [[["res3c_branch2a", 0, 0, {}]]]}, {"class_name": "Activation", "config": {"name": "activation_16", "trainable": true, "dtype": "float32", "activation": "relu"}, "name": "activation_16", "inbound_nodes": [[["bn3c_branch2a", 0, 0, {}]]]}, {"class_name": "Conv2D", "config": {"name": "res3c_branch2b", "trainable": true, "dtype": "float32", "filters": 128, "kernel_size": [3, 3], "strides": [1, 1], "padding": "same", "data_format": "channels_first", "dilation_rate": [1, 1], "groups": 1, "activation": "linear", "use_bias": false, "kernel_initializer": {"class_name": "GlorotUniform", "config": {"seed": null}}, "bias_initializer": {"class_name": "Zeros", "config": {}}, "kernel_regularizer": null, "bias_regularizer": null, "activity_regularizer": null, "kernel_constraint": null, "bias_constraint": null}, "name": "res3c_branch2b", "inbound_nodes": [[["activation_16", 0, 0, {}]]]}, {"class_name": "BatchNormalization", "config": {"name": "bn3c_branch2b", "trainable": true, "dtype": "float32", "axis": [1], "momentum": 0.1, "epsilon": 1e-05, "center": true, "scale": true, "beta_initializer": {"class_name": "Zeros", "config": {}}, "gamma_initializer": {"class_name": "Ones", "config": {}}, "moving_mean_initializer": {"class_name": "Zeros", "config": {}}, "moving_variance_initializer": {"class_name": "Ones", "config": {}}, "beta_regularizer": null, "gamma_regularizer": null, "beta_constraint": null, "gamma_constraint": null}, "name": "bn3c_branch2b", "inbound_nodes": [[["res3c_branch2b", 0, 0, {}]]]}, {"class_name": "Activation", "config": {"name": "activation_17", "trainable": true, "dtype": "float32", "activation": "relu"}, "name": "activation_17", "inbound_nodes": [[["bn3c_branch2b", 0, 0, {}]]]}, {"class_name": "Conv2D", "config": {"name": "res3c_branch2c", "trainable": true, "dtype": "float32", "filters": 128, "kernel_size": [1, 1], "strides": [1, 1], "padding": "valid", "data_format": "channels_first", "dilation_rate": [1, 1], "groups": 1, "activation": "linear", "use_bias": false, "kernel_initializer": {"class_name": "GlorotUniform", "config": {"seed": null}}, "bias_initializer": {"class_name": "Zeros", "config": {}}, "kernel_regularizer": null, "bias_regularizer": null, "activity_regularizer": null, "kernel_constraint": null, "bias_constraint": null}, "name": "res3c_branch2c", "inbound_nodes": [[["activation_17", 0, 0, {}]]]}, {"class_name": "BatchNormalization", "config": {"name": "bn3c_branch2c", "trainable": true, "dtype": "float32", "axis": [1], "momentum": 0.1, "epsilon": 1e-05, "center": true, "scale": true, "beta_initializer": {"class_name": "Zeros", "config": {}}, "gamma_initializer": {"class_name": "Ones", "config": {}}, "moving_mean_initializer": {"class_name": "Zeros", "config": {}}, "moving_variance_initializer": {"class_name": "Ones", "config": {}}, "beta_regularizer": null, "gamma_regularizer": null, "beta_constraint": null, "gamma_constraint": null}, "name": "bn3c_branch2c", "inbound_nodes": [[["res3c_branch2c", 0, 0, {}]]]}, {"class_name": "Add", "config": {"name": "add_5", "trainable": true, "dtype": "float32"}, "name": "add_5", "inbound_nodes": [[["bn3c_branch2c", 0, 0, {}], ["activation_15", 0, 0, {}]]]}, {"class_name": "Activation", "config": {"name": "activation_18", "trainable": true, "dtype": "float32", "activation": "relu"}, "name": "activation_18", "inbound_nodes": [[["add_5", 0, 0, {}]]]}, {"class_name": "Conv2D", "config": {"name": "res3d_branch2a", "trainable": true, "dtype": "float32", "filters": 256, "kernel_size": [1, 1], "strides": [1, 1], "padding": "valid", "data_format": "channels_first", "dilation_rate": [1, 1], "groups": 1, "activation": "linear", "use_bias": false, "kernel_initializer": {"class_name": "GlorotUniform", "config": {"seed": null}}, "bias_initializer": {"class_name": "Zeros", "config": {}}, "kernel_regularizer": null, "bias_regularizer": null, "activity_regularizer": null, "kernel_constraint": null, "bias_constraint": null}, "name": "res3d_branch2a", "inbound_nodes": [[["activation_18", 0, 0, {}]]]}, {"class_name": "BatchNormalization", "config": {"name": "bn3d_branch2a", "trainable": true, "dtype": "float32", "axis": [1], "momentum": 0.1, "epsilon": 1e-05, "center": true, "scale": true, "beta_initializer": {"class_name": "Zeros", "config": {}}, "gamma_initializer": {"class_name": "Ones", "config": {}}, "moving_mean_initializer": {"class_name": "Zeros", "config": {}}, "moving_variance_initializer": {"class_name": "Ones", "config": {}}, "beta_regularizer": null, "gamma_regularizer": null, "beta_constraint": null, "gamma_constraint": null}, "name": "bn3d_branch2a", "inbound_nodes": [[["res3d_branch2a", 0, 0, {}]]]}, {"class_name": "Activation", "config": {"name": "activation_19", "trainable": true, "dtype": "float32", "activation": "relu"}, "name": "activation_19", "inbound_nodes": [[["bn3d_branch2a", 0, 0, {}]]]}, {"class_name": "Conv2D", "config": {"name": "res3d_branch2b", "trainable": true, "dtype": "float32", "filters": 128, "kernel_size": [3, 3], "strides": [1, 1], "padding": "same", "data_format": "channels_first", "dilation_rate": [1, 1], "groups": 1, "activation": "linear", "use_bias": false, "kernel_initializer": {"class_name": "GlorotUniform", "config": {"seed": null}}, "bias_initializer": {"class_name": "Zeros", "config": {}}, "kernel_regularizer": null, "bias_regularizer": null, "activity_regularizer": null, "kernel_constraint": null, "bias_constraint": null}, "name": "res3d_branch2b", "inbound_nodes": [[["activation_19", 0, 0, {}]]]}, {"class_name": "BatchNormalization", "config": {"name": "bn3d_branch2b", "trainable": true, "dtype": "float32", "axis": [1], "momentum": 0.1, "epsilon": 1e-05, "center": true, "scale": true, "beta_initializer": {"class_name": "Zeros", "config": {}}, "gamma_initializer": {"class_name": "Ones", "config": {}}, "moving_mean_initializer": {"class_name": "Zeros", "config": {}}, "moving_variance_initializer": {"class_name": "Ones", "config": {}}, "beta_regularizer": null, "gamma_regularizer": null, "beta_constraint": null, "gamma_constraint": null}, "name": "bn3d_branch2b", "inbound_nodes": [[["res3d_branch2b", 0, 0, {}]]]}, {"class_name": "Activation", "config": {"name": "activation_20", "trainable": true, "dtype": "float32", "activation": "relu"}, "name": "activation_20", "inbound_nodes": [[["bn3d_branch2b", 0, 0, {}]]]}, {"class_name": "Conv2D", "config": {"name": "res3d_branch2c", "trainable": true, "dtype": "float32", "filters": 128, "kernel_size": [1, 1], "strides": [1, 1], "padding": "valid", "data_format": "channels_first", "dilation_rate": [1, 1], "groups": 1, "activation": "linear", "use_bias": false, "kernel_initializer": {"class_name": "GlorotUniform", "config": {"seed": null}}, "bias_initializer": {"class_name": "Zeros", "config": {}}, "kernel_regularizer": null, "bias_regularizer": null, "activity_regularizer": null, "kernel_constraint": null, "bias_constraint": null}, "name": "res3d_branch2c", "inbound_nodes": [[["activation_20", 0, 0, {}]]]}, {"class_name": "BatchNormalization", "config": {"name": "bn3d_branch2c", "trainable": true, "dtype": "float32", "axis": [1], "momentum": 0.1, "epsilon": 1e-05, "center": true, "scale": true, "beta_initializer": {"class_name": "Zeros", "config": {}}, "gamma_initializer": {"class_name": "Ones", "config": {}}, "moving_mean_initializer": {"class_name": "Zeros", "config": {}}, "moving_variance_initializer": {"class_name": "Ones", "config": {}}, "beta_regularizer": null, "gamma_regularizer": null, "beta_constraint": null, "gamma_constraint": null}, "name": "bn3d_branch2c", "inbound_nodes": [[["res3d_branch2c", 0, 0, {}]]]}, {"class_name": "Add", "config": {"name": "add_6", "trainable": true, "dtype": "float32"}, "name": "add_6", "inbound_nodes": [[["bn3d_branch2c", 0, 0, {}], ["activation_18", 0, 0, {}]]]}, {"class_name": "Activation", "config": {"name": "activation_21", "trainable": true, "dtype": "float32", "activation": "relu"}, "name": "activation_21", "inbound_nodes": [[["add_6", 0, 0, {}]]]}, {"class_name": "Conv2D", "config": {"name": "res4a_branch2a", "trainable": true, "dtype": "float32", "filters": 1024, "kernel_size": [1, 1], "strides": [1, 1], "padding": "valid", "data_format": "channels_first", "dilation_rate": [1, 1], "groups": 1, "activation": "linear", "use_bias": false, "kernel_initializer": {"class_name": "GlorotUniform", "config": {"seed": null}}, "bias_initializer": {"class_name": "Zeros", "config": {}}, "kernel_regularizer": null, "bias_regularizer": null, "activity_regularizer": null, "kernel_constraint": null, "bias_constraint": null}, "name": "res4a_branch2a", "inbound_nodes": [[["activation_21", 0, 0, {}]]]}, {"class_name": "BatchNormalization", "config": {"name": "bn4a_branch2a", "trainable": true, "dtype": "float32", "axis": [1], "momentum": 0.1, "epsilon": 1e-05, "center": true, "scale": true, "beta_initializer": {"class_name": "Zeros", "config": {}}, "gamma_initializer": {"class_name": "Ones", "config": {}}, "moving_mean_initializer": {"class_name": "Zeros", "config": {}}, "moving_variance_initializer": {"class_name": "Ones", "config": {}}, "beta_regularizer": null, "gamma_regularizer": null, "beta_constraint": null, "gamma_constraint": null}, "name": "bn4a_branch2a", "inbound_nodes": [[["res4a_branch2a", 0, 0, {}]]]}, {"class_name": "Activation", "config": {"name": "activation_22", "trainable": true, "dtype": "float32", "activation": "relu"}, "name": "activation_22", "inbound_nodes": [[["bn4a_branch2a", 0, 0, {}]]]}, {"class_name": "Conv2D", "config": {"name": "res4a_branch2b", "trainable": true, "dtype": "float32", "filters": 256, "kernel_size": [3, 3], "strides": [1, 1], "padding": "same", "data_format": "channels_first", "dilation_rate": [2, 2], "groups": 1, "activation": "linear", "use_bias": false, "kernel_initializer": {"class_name": "GlorotUniform", "config": {"seed": null}}, "bias_initializer": {"class_name": "Zeros", "config": {}}, "kernel_regularizer": null, "bias_regularizer": null, "activity_regularizer": null, "kernel_constraint": null, "bias_constraint": null}, "name": "res4a_branch2b", "inbound_nodes": [[["activation_22", 0, 0, {}]]]}, {"class_name": "BatchNormalization", "config": {"name": "bn4a_branch2b", "trainable": true, "dtype": "float32", "axis": [1], "momentum": 0.1, "epsilon": 1e-05, "center": true, "scale": true, "beta_initializer": {"class_name": "Zeros", "config": {}}, "gamma_initializer": {"class_name": "Ones", "config": {}}, "moving_mean_initializer": {"class_name": "Zeros", "config": {}}, "moving_variance_initializer": {"class_name": "Ones", "config": {}}, "beta_regularizer": null, "gamma_regularizer": null, "beta_constraint": null, "gamma_constraint": null}, "name": "bn4a_branch2b", "inbound_nodes": [[["res4a_branch2b", 0, 0, {}]]]}, {"class_name": "Activation", "config": {"name": "activation_23", "trainable": true, "dtype": "float32", "activation": "relu"}, "name": "activation_23", "inbound_nodes": [[["bn4a_branch2b", 0, 0, {}]]]}, {"class_name": "Conv2D", "config": {"name": "res4a_branch2c", "trainable": true, "dtype": "float32", "filters": 256, "kernel_size": [1, 1], "strides": [1, 1], "padding": "valid", "data_format": "channels_first", "dilation_rate": [1, 1], "groups": 1, "activation": "linear", "use_bias": false, "kernel_initializer": {"class_name": "GlorotUniform", "config": {"seed": null}}, "bias_initializer": {"class_name": "Zeros", "config": {}}, "kernel_regularizer": null, "bias_regularizer": null, "activity_regularizer": null, "kernel_constraint": null, "bias_constraint": null}, "name": "res4a_branch2c", "inbound_nodes": [[["activation_23", 0, 0, {}]]]}, {"class_name": "Conv2D", "config": {"name": "res4a_branch1", "trainable": true, "dtype": "float32", "filters": 256, "kernel_size": [1, 1], "strides": [1, 1], "padding": "valid", "data_format": "channels_first", "dilation_rate": [1, 1], "groups": 1, "activation": "linear", "use_bias": false, "kernel_initializer": {"class_name": "GlorotUniform", "config": {"seed": null}}, "bias_initializer": {"class_name": "Zeros", "config": {}}, "kernel_regularizer": null, "bias_regularizer": null, "activity_regularizer": null, "kernel_constraint": null, "bias_constraint": null}, "name": "res4a_branch1", "inbound_nodes": [[["activation_21", 0, 0, {}]]]}, {"class_name": "BatchNormalization", "config": {"name": "bn4a_branch2c", "trainable": true, "dtype": "float32", "axis": [1], "momentum": 0.1, "epsilon": 1e-05, "center": true, "scale": true, "beta_initializer": {"class_name": "Zeros", "config": {}}, "gamma_initializer": {"class_name": "Ones", "config": {}}, "moving_mean_initializer": {"class_name": "Zeros", "config": {}}, "moving_variance_initializer": {"class_name": "Ones", "config": {}}, "beta_regularizer": null, "gamma_regularizer": null, "beta_constraint": null, "gamma_constraint": null}, "name": "bn4a_branch2c", "inbound_nodes": [[["res4a_branch2c", 0, 0, {}]]]}, {"class_name": "BatchNormalization", "config": {"name": "bn4a_branch1", "trainable": true, "dtype": "float32", "axis": [1], "momentum": 0.1, "epsilon": 1e-05, "center": true, "scale": true, "beta_initializer": {"class_name": "Zeros", "config": {}}, "gamma_initializer": {"class_name": "Ones", "config": {}}, "moving_mean_initializer": {"class_name": "Zeros", "config": {}}, "moving_variance_initializer": {"class_name": "Ones", "config": {}}, "beta_regularizer": null, "gamma_regularizer": null, "beta_constraint": null, "gamma_constraint": null}, "name": "bn4a_branch1", "inbound_nodes": [[["res4a_branch1", 0, 0, {}]]]}, {"class_name": "Add", "config": {"name": "add_7", "trainable": true, "dtype": "float32"}, "name": "add_7", "inbound_nodes": [[["bn4a_branch2c", 0, 0, {}], ["bn4a_branch1", 0, 0, {}]]]}, {"class_name": "Activation", "config": {"name": "activation_24", "trainable": true, "dtype": "float32", "activation": "relu"}, "name": "activation_24", "inbound_nodes": [[["add_7", 0, 0, {}]]]}, {"class_name": "Conv2D", "config": {"name": "res4b_branch2a", "trainable": true, "dtype": "float32", "filters": 1024, "kernel_size": [1, 1], "strides": [1, 1], "padding": "valid", "data_format": "channels_first", "dilation_rate": [1, 1], "groups": 1, "activation": "linear", "use_bias": false, "kernel_initializer": {"class_name": "GlorotUniform", "config": {"seed": null}}, "bias_initializer": {"class_name": "Zeros", "config": {}}, "kernel_regularizer": null, "bias_regularizer": null, "activity_regularizer": null, "kernel_constraint": null, "bias_constraint": null}, "name": "res4b_branch2a", "inbound_nodes": [[["activation_24", 0, 0, {}]]]}, {"class_name": "BatchNormalization", "config": {"name": "bn4b_branch2a", "trainable": true, "dtype": "float32", "axis": [1], "momentum": 0.1, "epsilon": 1e-05, "center": true, "scale": true, "beta_initializer": {"class_name": "Zeros", "config": {}}, "gamma_initializer": {"class_name": "Ones", "config": {}}, "moving_mean_initializer": {"class_name": "Zeros", "config": {}}, "moving_variance_initializer": {"class_name": "Ones", "config": {}}, "beta_regularizer": null, "gamma_regularizer": null, "beta_constraint": null, "gamma_constraint": null}, "name": "bn4b_branch2a", "inbound_nodes": [[["res4b_branch2a", 0, 0, {}]]]}, {"class_name": "Activation", "config": {"name": "activation_25", "trainable": true, "dtype": "float32", "activation": "relu"}, "name": "activation_25", "inbound_nodes": [[["bn4b_branch2a", 0, 0, {}]]]}, {"class_name": "Conv2D", "config": {"name": "res4b_branch2b", "trainable": true, "dtype": "float32", "filters": 256, "kernel_size": [3, 3], "strides": [1, 1], "padding": "same", "data_format": "channels_first", "dilation_rate": [2, 2], "groups": 1, "activation": "linear", "use_bias": false, "kernel_initializer": {"class_name": "GlorotUniform", "config": {"seed": null}}, "bias_initializer": {"class_name": "Zeros", "config": {}}, "kernel_regularizer": null, "bias_regularizer": null, "activity_regularizer": null, "kernel_constraint": null, "bias_constraint": null}, "name": "res4b_branch2b", "inbound_nodes": [[["activation_25", 0, 0, {}]]]}, {"class_name": "BatchNormalization", "config": {"name": "bn4b_branch2b", "trainable": true, "dtype": "float32", "axis": [1], "momentum": 0.1, "epsilon": 1e-05, "center": true, "scale": true, "beta_initializer": {"class_name": "Zeros", "config": {}}, "gamma_initializer": {"class_name": "Ones", "config": {}}, "moving_mean_initializer": {"class_name": "Zeros", "config": {}}, "moving_variance_initializer": {"class_name": "Ones", "config": {}}, "beta_regularizer": null, "gamma_regularizer": null, "beta_constraint": null, "gamma_constraint": null}, "name": "bn4b_branch2b", "inbound_nodes": [[["res4b_branch2b", 0, 0, {}]]]}, {"class_name": "Activation", "config": {"name": "activation_26", "trainable": true, "dtype": "float32", "activation": "relu"}, "name": "activation_26", "inbound_nodes": [[["bn4b_branch2b", 0, 0, {}]]]}, {"class_name": "Conv2D", "config": {"name": "res4b_branch2c", "trainable": true, "dtype": "float32", "filters": 256, "kernel_size": [1, 1], "strides": [1, 1], "padding": "valid", "data_format": "channels_first", "dilation_rate": [1, 1], "groups": 1, "activation": "linear", "use_bias": false, "kernel_initializer": {"class_name": "GlorotUniform", "config": {"seed": null}}, "bias_initializer": {"class_name": "Zeros", "config": {}}, "kernel_regularizer": null, "bias_regularizer": null, "activity_regularizer": null, "kernel_constraint": null, "bias_constraint": null}, "name": "res4b_branch2c", "inbound_nodes": [[["activation_26", 0, 0, {}]]]}, {"class_name": "BatchNormalization", "config": {"name": "bn4b_branch2c", "trainable": true, "dtype": "float32", "axis": [1], "momentum": 0.1, "epsilon": 1e-05, "center": true, "scale": true, "beta_initializer": {"class_name": "Zeros", "config": {}}, "gamma_initializer": {"class_name": "Ones", "config": {}}, "moving_mean_initializer": {"class_name": "Zeros", "config": {}}, "moving_variance_initializer": {"class_name": "Ones", "config": {}}, "beta_regularizer": null, "gamma_regularizer": null, "beta_constraint": null, "gamma_constraint": null}, "name": "bn4b_branch2c", "inbound_nodes": [[["res4b_branch2c", 0, 0, {}]]]}, {"class_name": "Add", "config": {"name": "add_8", "trainable": true, "dtype": "float32"}, "name": "add_8", "inbound_nodes": [[["bn4b_branch2c", 0, 0, {}], ["activation_24", 0, 0, {}]]]}, {"class_name": "Activation", "config": {"name": "activation_27", "trainable": true, "dtype": "float32", "activation": "relu"}, "name": "activation_27", "inbound_nodes": [[["add_8", 0, 0, {}]]]}, {"class_name": "Conv2D", "config": {"name": "res4c_branch2a", "trainable": true, "dtype": "float32", "filters": 1024, "kernel_size": [1, 1], "strides": [1, 1], "padding": "valid", "data_format": "channels_first", "dilation_rate": [1, 1], "groups": 1, "activation": "linear", "use_bias": false, "kernel_initializer": {"class_name": "GlorotUniform", "config": {"seed": null}}, "bias_initializer": {"class_name": "Zeros", "config": {}}, "kernel_regularizer": null, "bias_regularizer": null, "activity_regularizer": null, "kernel_constraint": null, "bias_constraint": null}, "name": "res4c_branch2a", "inbound_nodes": [[["activation_27", 0, 0, {}]]]}, {"class_name": "BatchNormalization", "config": {"name": "bn4c_branch2a", "trainable": true, "dtype": "float32", "axis": [1], "momentum": 0.1, "epsilon": 1e-05, "center": true, "scale": true, "beta_initializer": {"class_name": "Zeros", "config": {}}, "gamma_initializer": {"class_name": "Ones", "config": {}}, "moving_mean_initializer": {"class_name": "Zeros", "config": {}}, "moving_variance_initializer": {"class_name": "Ones", "config": {}}, "beta_regularizer": null, "gamma_regularizer": null, "beta_constraint": null, "gamma_constraint": null}, "name": "bn4c_branch2a", "inbound_nodes": [[["res4c_branch2a", 0, 0, {}]]]}, {"class_name": "Activation", "config": {"name": "activation_28", "trainable": true, "dtype": "float32", "activation": "relu"}, "name": "activation_28", "inbound_nodes": [[["bn4c_branch2a", 0, 0, {}]]]}, {"class_name": "Conv2D", "config": {"name": "res4c_branch2b", "trainable": true, "dtype": "float32", "filters": 256, "kernel_size": [3, 3], "strides": [1, 1], "padding": "same", "data_format": "channels_first", "dilation_rate": [2, 2], "groups": 1, "activation": "linear", "use_bias": false, "kernel_initializer": {"class_name": "GlorotUniform", "config": {"seed": null}}, "bias_initializer": {"class_name": "Zeros", "config": {}}, "kernel_regularizer": null, "bias_regularizer": null, "activity_regularizer": null, "kernel_constraint": null, "bias_constraint": null}, "name": "res4c_branch2b", "inbound_nodes": [[["activation_28", 0, 0, {}]]]}, {"class_name": "BatchNormalization", "config": {"name": "bn4c_branch2b", "trainable": true, "dtype": "float32", "axis": [1], "momentum": 0.1, "epsilon": 1e-05, "center": true, "scale": true, "beta_initializer": {"class_name": "Zeros", "config": {}}, "gamma_initializer": {"class_name": "Ones", "config": {}}, "moving_mean_initializer": {"class_name": "Zeros", "config": {}}, "moving_variance_initializer": {"class_name": "Ones", "config": {}}, "beta_regularizer": null, "gamma_regularizer": null, "beta_constraint": null, "gamma_constraint": null}, "name": "bn4c_branch2b", "inbound_nodes": [[["res4c_branch2b", 0, 0, {}]]]}, {"class_name": "Activation", "config": {"name": "activation_29", "trainable": true, "dtype": "float32", "activation": "relu"}, "name": "activation_29", "inbound_nodes": [[["bn4c_branch2b", 0, 0, {}]]]}, {"class_name": "Conv2D", "config": {"name": "res4c_branch2c", "trainable": true, "dtype": "float32", "filters": 256, "kernel_size": [1, 1], "strides": [1, 1], "padding": "valid", "data_format": "channels_first", "dilation_rate": [1, 1], "groups": 1, "activation": "linear", "use_bias": false, "kernel_initializer": {"class_name": "GlorotUniform", "config": {"seed": null}}, "bias_initializer": {"class_name": "Zeros", "config": {}}, "kernel_regularizer": null, "bias_regularizer": null, "activity_regularizer": null, "kernel_constraint": null, "bias_constraint": null}, "name": "res4c_branch2c", "inbound_nodes": [[["activation_29", 0, 0, {}]]]}, {"class_name": "BatchNormalization", "config": {"name": "bn4c_branch2c", "trainable": true, "dtype": "float32", "axis": [1], "momentum": 0.1, "epsilon": 1e-05, "center": true, "scale": true, "beta_initializer": {"class_name": "Zeros", "config": {}}, "gamma_initializer": {"class_name": "Ones", "config": {}}, "moving_mean_initializer": {"class_name": "Zeros", "config": {}}, "moving_variance_initializer": {"class_name": "Ones", "config": {}}, "beta_regularizer": null, "gamma_regularizer": null, "beta_constraint": null, "gamma_constraint": null}, "name": "bn4c_branch2c", "inbound_nodes": [[["res4c_branch2c", 0, 0, {}]]]}, {"class_name": "Add", "config": {"name": "add_9", "trainable": true, "dtype": "float32"}, "name": "add_9", "inbound_nodes": [[["bn4c_branch2c", 0, 0, {}], ["activation_27", 0, 0, {}]]]}, {"class_name": "Activation", "config": {"name": "activation_30", "trainable": true, "dtype": "float32", "activation": "relu"}, "name": "activation_30", "inbound_nodes": [[["add_9", 0, 0, {}]]]}, {"class_name": "Conv2D", "config": {"name": "res4d_branch2a", "trainable": true, "dtype": "float32", "filters": 1024, "kernel_size": [1, 1], "strides": [1, 1], "padding": "valid", "data_format": "channels_first", "dilation_rate": [1, 1], "groups": 1, "activation": "linear", "use_bias": false, "kernel_initializer": {"class_name": "GlorotUniform", "config": {"seed": null}}, "bias_initializer": {"class_name": "Zeros", "config": {}}, "kernel_regularizer": null, "bias_regularizer": null, "activity_regularizer": null, "kernel_constraint": null, "bias_constraint": null}, "name": "res4d_branch2a", "inbound_nodes": [[["activation_30", 0, 0, {}]]]}, {"class_name": "BatchNormalization", "config": {"name": "bn4d_branch2a", "trainable": true, "dtype": "float32", "axis": [1], "momentum": 0.1, "epsilon": 1e-05, "center": true, "scale": true, "beta_initializer": {"class_name": "Zeros", "config": {}}, "gamma_initializer": {"class_name": "Ones", "config": {}}, "moving_mean_initializer": {"class_name": "Zeros", "config": {}}, "moving_variance_initializer": {"class_name": "Ones", "config": {}}, "beta_regularizer": null, "gamma_regularizer": null, "beta_constraint": null, "gamma_constraint": null}, "name": "bn4d_branch2a", "inbound_nodes": [[["res4d_branch2a", 0, 0, {}]]]}, {"class_name": "Activation", "config": {"name": "activation_31", "trainable": true, "dtype": "float32", "activation": "relu"}, "name": "activation_31", "inbound_nodes": [[["bn4d_branch2a", 0, 0, {}]]]}, {"class_name": "Conv2D", "config": {"name": "res4d_branch2b", "trainable": true, "dtype": "float32", "filters": 256, "kernel_size": [3, 3], "strides": [1, 1], "padding": "same", "data_format": "channels_first", "dilation_rate": [2, 2], "groups": 1, "activation": "linear", "use_bias": false, "kernel_initializer": {"class_name": "GlorotUniform", "config": {"seed": null}}, "bias_initializer": {"class_name": "Zeros", "config": {}}, "kernel_regularizer": null, "bias_regularizer": null, "activity_regularizer": null, "kernel_constraint": null, "bias_constraint": null}, "name": "res4d_branch2b", "inbound_nodes": [[["activation_31", 0, 0, {}]]]}, {"class_name": "BatchNormalization", "config": {"name": "bn4d_branch2b", "trainable": true, "dtype": "float32", "axis": [1], "momentum": 0.1, "epsilon": 1e-05, "center": true, "scale": true, "beta_initializer": {"class_name": "Zeros", "config": {}}, "gamma_initializer": {"class_name": "Ones", "config": {}}, "moving_mean_initializer": {"class_name": "Zeros", "config": {}}, "moving_variance_initializer": {"class_name": "Ones", "config": {}}, "beta_regularizer": null, "gamma_regularizer": null, "beta_constraint": null, "gamma_constraint": null}, "name": "bn4d_branch2b", "inbound_nodes": [[["res4d_branch2b", 0, 0, {}]]]}, {"class_name": "Activation", "config": {"name": "activation_32", "trainable": true, "dtype": "float32", "activation": "relu"}, "name": "activation_32", "inbound_nodes": [[["bn4d_branch2b", 0, 0, {}]]]}, {"class_name": "Conv2D", "config": {"name": "res4d_branch2c", "trainable": true, "dtype": "float32", "filters": 256, "kernel_size": [1, 1], "strides": [1, 1], "padding": "valid", "data_format": "channels_first", "dilation_rate": [1, 1], "groups": 1, "activation": "linear", "use_bias": false, "kernel_initializer": {"class_name": "GlorotUniform", "config": {"seed": null}}, "bias_initializer": {"class_name": "Zeros", "config": {}}, "kernel_regularizer": null, "bias_regularizer": null, "activity_regularizer": null, "kernel_constraint": null, "bias_constraint": null}, "name": "res4d_branch2c", "inbound_nodes": [[["activation_32", 0, 0, {}]]]}, {"class_name": "BatchNormalization", "config": {"name": "bn4d_branch2c", "trainable": true, "dtype": "float32", "axis": [1], "momentum": 0.1, "epsilon": 1e-05, "center": true, "scale": true, "beta_initializer": {"class_name": "Zeros", "config": {}}, "gamma_initializer": {"class_name": "Ones", "config": {}}, "moving_mean_initializer": {"class_name": "Zeros", "config": {}}, "moving_variance_initializer": {"class_name": "Ones", "config": {}}, "beta_regularizer": null, "gamma_regularizer": null, "beta_constraint": null, "gamma_constraint": null}, "name": "bn4d_branch2c", "inbound_nodes": [[["res4d_branch2c", 0, 0, {}]]]}, {"class_name": "Add", "config": {"name": "add_10", "trainable": true, "dtype": "float32"}, "name": "add_10", "inbound_nodes": [[["bn4d_branch2c", 0, 0, {}], ["activation_30", 0, 0, {}]]]}, {"class_name": "Activation", "config": {"name": "activation_33", "trainable": true, "dtype": "float32", "activation": "relu"}, "name": "activation_33", "inbound_nodes": [[["add_10", 0, 0, {}]]]}, {"class_name": "Conv2D", "config": {"name": "res4e_branch2a", "trainable": true, "dtype": "float32", "filters": 1024, "kernel_size": [1, 1], "strides": [1, 1], "padding": "valid", "data_format": "channels_first", "dilation_rate": [1, 1], "groups": 1, "activation": "linear", "use_bias": false, "kernel_initializer": {"class_name": "GlorotUniform", "config": {"seed": null}}, "bias_initializer": {"class_name": "Zeros", "config": {}}, "kernel_regularizer": null, "bias_regularizer": null, "activity_regularizer": null, "kernel_constraint": null, "bias_constraint": null}, "name": "res4e_branch2a", "inbound_nodes": [[["activation_33", 0, 0, {}]]]}, {"class_name": "BatchNormalization", "config": {"name": "bn4e_branch2a", "trainable": true, "dtype": "float32", "axis": [1], "momentum": 0.1, "epsilon": 1e-05, "center": true, "scale": true, "beta_initializer": {"class_name": "Zeros", "config": {}}, "gamma_initializer": {"class_name": "Ones", "config": {}}, "moving_mean_initializer": {"class_name": "Zeros", "config": {}}, "moving_variance_initializer": {"class_name": "Ones", "config": {}}, "beta_regularizer": null, "gamma_regularizer": null, "beta_constraint": null, "gamma_constraint": null}, "name": "bn4e_branch2a", "inbound_nodes": [[["res4e_branch2a", 0, 0, {}]]]}, {"class_name": "Activation", "config": {"name": "activation_34", "trainable": true, "dtype": "float32", "activation": "relu"}, "name": "activation_34", "inbound_nodes": [[["bn4e_branch2a", 0, 0, {}]]]}, {"class_name": "Conv2D", "config": {"name": "res4e_branch2b", "trainable": true, "dtype": "float32", "filters": 256, "kernel_size": [3, 3], "strides": [1, 1], "padding": "same", "data_format": "channels_first", "dilation_rate": [2, 2], "groups": 1, "activation": "linear", "use_bias": false, "kernel_initializer": {"class_name": "GlorotUniform", "config": {"seed": null}}, "bias_initializer": {"class_name": "Zeros", "config": {}}, "kernel_regularizer": null, "bias_regularizer": null, "activity_regularizer": null, "kernel_constraint": null, "bias_constraint": null}, "name": "res4e_branch2b", "inbound_nodes": [[["activation_34", 0, 0, {}]]]}, {"class_name": "BatchNormalization", "config": {"name": "bn4e_branch2b", "trainable": true, "dtype": "float32", "axis": [1], "momentum": 0.1, "epsilon": 1e-05, "center": true, "scale": true, "beta_initializer": {"class_name": "Zeros", "config": {}}, "gamma_initializer": {"class_name": "Ones", "config": {}}, "moving_mean_initializer": {"class_name": "Zeros", "config": {}}, "moving_variance_initializer": {"class_name": "Ones", "config": {}}, "beta_regularizer": null, "gamma_regularizer": null, "beta_constraint": null, "gamma_constraint": null}, "name": "bn4e_branch2b", "inbound_nodes": [[["res4e_branch2b", 0, 0, {}]]]}, {"class_name": "Activation", "config": {"name": "activation_35", "trainable": true, "dtype": "float32", "activation": "relu"}, "name": "activation_35", "inbound_nodes": [[["bn4e_branch2b", 0, 0, {}]]]}, {"class_name": "Conv2D", "config": {"name": "res4e_branch2c", "trainable": true, "dtype": "float32", "filters": 256, "kernel_size": [1, 1], "strides": [1, 1], "padding": "valid", "data_format": "channels_first", "dilation_rate": [1, 1], "groups": 1, "activation": "linear", "use_bias": false, "kernel_initializer": {"class_name": "GlorotUniform", "config": {"seed": null}}, "bias_initializer": {"class_name": "Zeros", "config": {}}, "kernel_regularizer": null, "bias_regularizer": null, "activity_regularizer": null, "kernel_constraint": null, "bias_constraint": null}, "name": "res4e_branch2c", "inbound_nodes": [[["activation_35", 0, 0, {}]]]}, {"class_name": "BatchNormalization", "config": {"name": "bn4e_branch2c", "trainable": true, "dtype": "float32", "axis": [1], "momentum": 0.1, "epsilon": 1e-05, "center": true, "scale": true, "beta_initializer": {"class_name": "Zeros", "config": {}}, "gamma_initializer": {"class_name": "Ones", "config": {}}, "moving_mean_initializer": {"class_name": "Zeros", "config": {}}, "moving_variance_initializer": {"class_name": "Ones", "config": {}}, "beta_regularizer": null, "gamma_regularizer": null, "beta_constraint": null, "gamma_constraint": null}, "name": "bn4e_branch2c", "inbound_nodes": [[["res4e_branch2c", 0, 0, {}]]]}, {"class_name": "Add", "config": {"name": "add_11", "trainable": true, "dtype": "float32"}, "name": "add_11", "inbound_nodes": [[["bn4e_branch2c", 0, 0, {}], ["activation_33", 0, 0, {}]]]}, {"class_name": "Activation", "config": {"name": "activation_36", "trainable": true, "dtype": "float32", "activation": "relu"}, "name": "activation_36", "inbound_nodes": [[["add_11", 0, 0, {}]]]}, {"class_name": "Conv2D", "config": {"name": "res4f_branch2a", "trainable": true, "dtype": "float32", "filters": 1024, "kernel_size": [1, 1], "strides": [1, 1], "padding": "valid", "data_format": "channels_first", "dilation_rate": [1, 1], "groups": 1, "activation": "linear", "use_bias": false, "kernel_initializer": {"class_name": "GlorotUniform", "config": {"seed": null}}, "bias_initializer": {"class_name": "Zeros", "config": {}}, "kernel_regularizer": null, "bias_regularizer": null, "activity_regularizer": null, "kernel_constraint": null, "bias_constraint": null}, "name": "res4f_branch2a", "inbound_nodes": [[["activation_36", 0, 0, {}]]]}, {"class_name": "BatchNormalization", "config": {"name": "bn4f_branch2a", "trainable": true, "dtype": "float32", "axis": [1], "momentum": 0.1, "epsilon": 1e-05, "center": true, "scale": true, "beta_initializer": {"class_name": "Zeros", "config": {}}, "gamma_initializer": {"class_name": "Ones", "config": {}}, "moving_mean_initializer": {"class_name": "Zeros", "config": {}}, "moving_variance_initializer": {"class_name": "Ones", "config": {}}, "beta_regularizer": null, "gamma_regularizer": null, "beta_constraint": null, "gamma_constraint": null}, "name": "bn4f_branch2a", "inbound_nodes": [[["res4f_branch2a", 0, 0, {}]]]}, {"class_name": "Activation", "config": {"name": "activation_37", "trainable": true, "dtype": "float32", "activation": "relu"}, "name": "activation_37", "inbound_nodes": [[["bn4f_branch2a", 0, 0, {}]]]}, {"class_name": "Conv2D", "config": {"name": "res4f_branch2b", "trainable": true, "dtype": "float32", "filters": 256, "kernel_size": [3, 3], "strides": [1, 1], "padding": "same", "data_format": "channels_first", "dilation_rate": [2, 2], "groups": 1, "activation": "linear", "use_bias": false, "kernel_initializer": {"class_name": "GlorotUniform", "config": {"seed": null}}, "bias_initializer": {"class_name": "Zeros", "config": {}}, "kernel_regularizer": null, "bias_regularizer": null, "activity_regularizer": null, "kernel_constraint": null, "bias_constraint": null}, "name": "res4f_branch2b", "inbound_nodes": [[["activation_37", 0, 0, {}]]]}, {"class_name": "BatchNormalization", "config": {"name": "bn4f_branch2b", "trainable": true, "dtype": "float32", "axis": [1], "momentum": 0.1, "epsilon": 1e-05, "center": true, "scale": true, "beta_initializer": {"class_name": "Zeros", "config": {}}, "gamma_initializer": {"class_name": "Ones", "config": {}}, "moving_mean_initializer": {"class_name": "Zeros", "config": {}}, "moving_variance_initializer": {"class_name": "Ones", "config": {}}, "beta_regularizer": null, "gamma_regularizer": null, "beta_constraint": null, "gamma_constraint": null}, "name": "bn4f_branch2b", "inbound_nodes": [[["res4f_branch2b", 0, 0, {}]]]}, {"class_name": "Activation", "config": {"name": "activation_38", "trainable": true, "dtype": "float32", "activation": "relu"}, "name": "activation_38", "inbound_nodes": [[["bn4f_branch2b", 0, 0, {}]]]}, {"class_name": "Conv2D", "config": {"name": "res4f_branch2c", "trainable": true, "dtype": "float32", "filters": 256, "kernel_size": [1, 1], "strides": [1, 1], "padding": "valid", "data_format": "channels_first", "dilation_rate": [1, 1], "groups": 1, "activation": "linear", "use_bias": false, "kernel_initializer": {"class_name": "GlorotUniform", "config": {"seed": null}}, "bias_initializer": {"class_name": "Zeros", "config": {}}, "kernel_regularizer": null, "bias_regularizer": null, "activity_regularizer": null, "kernel_constraint": null, "bias_constraint": null}, "name": "res4f_branch2c", "inbound_nodes": [[["activation_38", 0, 0, {}]]]}, {"class_name": "BatchNormalization", "config": {"name": "bn4f_branch2c", "trainable": true, "dtype": "float32", "axis": [1], "momentum": 0.1, "epsilon": 1e-05, "center": true, "scale": true, "beta_initializer": {"class_name": "Zeros", "config": {}}, "gamma_initializer": {"class_name": "Ones", "config": {}}, "moving_mean_initializer": {"class_name": "Zeros", "config": {}}, "moving_variance_initializer": {"class_name": "Ones", "config": {}}, "beta_regularizer": null, "gamma_regularizer": null, "beta_constraint": null, "gamma_constraint": null}, "name": "bn4f_branch2c", "inbound_nodes": [[["res4f_branch2c", 0, 0, {}]]]}, {"class_name": "Add", "config": {"name": "add_12", "trainable": true, "dtype": "float32"}, "name": "add_12", "inbound_nodes": [[["bn4f_branch2c", 0, 0, {}], ["activation_36", 0, 0, {}]]]}, {"class_name": "Activation", "config": {"name": "activation_39", "trainable": true, "dtype": "float32", "activation": "relu"}, "name": "activation_39", "inbound_nodes": [[["add_12", 0, 0, {}]]]}, {"class_name": "Conv2D", "config": {"name": "res4g_branch2a", "trainable": true, "dtype": "float32", "filters": 1024, "kernel_size": [1, 1], "strides": [1, 1], "padding": "valid", "data_format": "channels_first", "dilation_rate": [1, 1], "groups": 1, "activation": "linear", "use_bias": false, "kernel_initializer": {"class_name": "GlorotUniform", "config": {"seed": null}}, "bias_initializer": {"class_name": "Zeros", "config": {}}, "kernel_regularizer": null, "bias_regularizer": null, "activity_regularizer": null, "kernel_constraint": null, "bias_constraint": null}, "name": "res4g_branch2a", "inbound_nodes": [[["activation_39", 0, 0, {}]]]}, {"class_name": "BatchNormalization", "config": {"name": "bn4g_branch2a", "trainable": true, "dtype": "float32", "axis": [1], "momentum": 0.1, "epsilon": 1e-05, "center": true, "scale": true, "beta_initializer": {"class_name": "Zeros", "config": {}}, "gamma_initializer": {"class_name": "Ones", "config": {}}, "moving_mean_initializer": {"class_name": "Zeros", "config": {}}, "moving_variance_initializer": {"class_name": "Ones", "config": {}}, "beta_regularizer": null, "gamma_regularizer": null, "beta_constraint": null, "gamma_constraint": null}, "name": "bn4g_branch2a", "inbound_nodes": [[["res4g_branch2a", 0, 0, {}]]]}, {"class_name": "Activation", "config": {"name": "activation_40", "trainable": true, "dtype": "float32", "activation": "relu"}, "name": "activation_40", "inbound_nodes": [[["bn4g_branch2a", 0, 0, {}]]]}, {"class_name": "Conv2D", "config": {"name": "res4g_branch2b", "trainable": true, "dtype": "float32", "filters": 256, "kernel_size": [3, 3], "strides": [1, 1], "padding": "same", "data_format": "channels_first", "dilation_rate": [2, 2], "groups": 1, "activation": "linear", "use_bias": false, "kernel_initializer": {"class_name": "GlorotUniform", "config": {"seed": null}}, "bias_initializer": {"class_name": "Zeros", "config": {}}, "kernel_regularizer": null, "bias_regularizer": null, "activity_regularizer": null, "kernel_constraint": null, "bias_constraint": null}, "name": "res4g_branch2b", "inbound_nodes": [[["activation_40", 0, 0, {}]]]}, {"class_name": "BatchNormalization", "config": {"name": "bn4g_branch2b", "trainable": true, "dtype": "float32", "axis": [1], "momentum": 0.1, "epsilon": 1e-05, "center": true, "scale": true, "beta_initializer": {"class_name": "Zeros", "config": {}}, "gamma_initializer": {"class_name": "Ones", "config": {}}, "moving_mean_initializer": {"class_name": "Zeros", "config": {}}, "moving_variance_initializer": {"class_name": "Ones", "config": {}}, "beta_regularizer": null, "gamma_regularizer": null, "beta_constraint": null, "gamma_constraint": null}, "name": "bn4g_branch2b", "inbound_nodes": [[["res4g_branch2b", 0, 0, {}]]]}, {"class_name": "Activation", "config": {"name": "activation_41", "trainable": true, "dtype": "float32", "activation": "relu"}, "name": "activation_41", "inbound_nodes": [[["bn4g_branch2b", 0, 0, {}]]]}, {"class_name": "Conv2D", "config": {"name": "res4g_branch2c", "trainable": true, "dtype": "float32", "filters": 256, "kernel_size": [1, 1], "strides": [1, 1], "padding": "valid", "data_format": "channels_first", "dilation_rate": [1, 1], "groups": 1, "activation": "linear", "use_bias": false, "kernel_initializer": {"class_name": "GlorotUniform", "config": {"seed": null}}, "bias_initializer": {"class_name": "Zeros", "config": {}}, "kernel_regularizer": null, "bias_regularizer": null, "activity_regularizer": null, "kernel_constraint": null, "bias_constraint": null}, "name": "res4g_branch2c", "inbound_nodes": [[["activation_41", 0, 0, {}]]]}, {"class_name": "BatchNormalization", "config": {"name": "bn4g_branch2c", "trainable": true, "dtype": "float32", "axis": [1], "momentum": 0.1, "epsilon": 1e-05, "center": true, "scale": true, "beta_initializer": {"class_name": "Zeros", "config": {}}, "gamma_initializer": {"class_name": "Ones", "config": {}}, "moving_mean_initializer": {"class_name": "Zeros", "config": {}}, "moving_variance_initializer": {"class_name": "Ones", "config": {}}, "beta_regularizer": null, "gamma_regularizer": null, "beta_constraint": null, "gamma_constraint": null}, "name": "bn4g_branch2c", "inbound_nodes": [[["res4g_branch2c", 0, 0, {}]]]}, {"class_name": "Add", "config": {"name": "add_13", "trainable": true, "dtype": "float32"}, "name": "add_13", "inbound_nodes": [[["bn4g_branch2c", 0, 0, {}], ["activation_39", 0, 0, {}]]]}, {"class_name": "Activation", "config": {"name": "activation_42", "trainable": true, "dtype": "float32", "activation": "relu"}, "name": "activation_42", "inbound_nodes": [[["add_13", 0, 0, {}]]]}, {"class_name": "Conv2D", "config": {"name": "res4h_branch2a", "trainable": true, "dtype": "float32", "filters": 1024, "kernel_size": [1, 1], "strides": [1, 1], "padding": "valid", "data_format": "channels_first", "dilation_rate": [1, 1], "groups": 1, "activation": "linear", "use_bias": false, "kernel_initializer": {"class_name": "GlorotUniform", "config": {"seed": null}}, "bias_initializer": {"class_name": "Zeros", "config": {}}, "kernel_regularizer": null, "bias_regularizer": null, "activity_regularizer": null, "kernel_constraint": null, "bias_constraint": null}, "name": "res4h_branch2a", "inbound_nodes": [[["activation_42", 0, 0, {}]]]}, {"class_name": "BatchNormalization", "config": {"name": "bn4h_branch2a", "trainable": true, "dtype": "float32", "axis": [1], "momentum": 0.1, "epsilon": 1e-05, "center": true, "scale": true, "beta_initializer": {"class_name": "Zeros", "config": {}}, "gamma_initializer": {"class_name": "Ones", "config": {}}, "moving_mean_initializer": {"class_name": "Zeros", "config": {}}, "moving_variance_initializer": {"class_name": "Ones", "config": {}}, "beta_regularizer": null, "gamma_regularizer": null, "beta_constraint": null, "gamma_constraint": null}, "name": "bn4h_branch2a", "inbound_nodes": [[["res4h_branch2a", 0, 0, {}]]]}, {"class_name": "Activation", "config": {"name": "activation_43", "trainable": true, "dtype": "float32", "activation": "relu"}, "name": "activation_43", "inbound_nodes": [[["bn4h_branch2a", 0, 0, {}]]]}, {"class_name": "Conv2D", "config": {"name": "res4h_branch2b", "trainable": true, "dtype": "float32", "filters": 256, "kernel_size": [3, 3], "strides": [1, 1], "padding": "same", "data_format": "channels_first", "dilation_rate": [2, 2], "groups": 1, "activation": "linear", "use_bias": false, "kernel_initializer": {"class_name": "GlorotUniform", "config": {"seed": null}}, "bias_initializer": {"class_name": "Zeros", "config": {}}, "kernel_regularizer": null, "bias_regularizer": null, "activity_regularizer": null, "kernel_constraint": null, "bias_constraint": null}, "name": "res4h_branch2b", "inbound_nodes": [[["activation_43", 0, 0, {}]]]}, {"class_name": "BatchNormalization", "config": {"name": "bn4h_branch2b", "trainable": true, "dtype": "float32", "axis": [1], "momentum": 0.1, "epsilon": 1e-05, "center": true, "scale": true, "beta_initializer": {"class_name": "Zeros", "config": {}}, "gamma_initializer": {"class_name": "Ones", "config": {}}, "moving_mean_initializer": {"class_name": "Zeros", "config": {}}, "moving_variance_initializer": {"class_name": "Ones", "config": {}}, "beta_regularizer": null, "gamma_regularizer": null, "beta_constraint": null, "gamma_constraint": null}, "name": "bn4h_branch2b", "inbound_nodes": [[["res4h_branch2b", 0, 0, {}]]]}, {"class_name": "Activation", "config": {"name": "activation_44", "trainable": true, "dtype": "float32", "activation": "relu"}, "name": "activation_44", "inbound_nodes": [[["bn4h_branch2b", 0, 0, {}]]]}, {"class_name": "Conv2D", "config": {"name": "res4h_branch2c", "trainable": true, "dtype": "float32", "filters": 256, "kernel_size": [1, 1], "strides": [1, 1], "padding": "valid", "data_format": "channels_first", "dilation_rate": [1, 1], "groups": 1, "activation": "linear", "use_bias": false, "kernel_initializer": {"class_name": "GlorotUniform", "config": {"seed": null}}, "bias_initializer": {"class_name": "Zeros", "config": {}}, "kernel_regularizer": null, "bias_regularizer": null, "activity_regularizer": null, "kernel_constraint": null, "bias_constraint": null}, "name": "res4h_branch2c", "inbound_nodes": [[["activation_44", 0, 0, {}]]]}, {"class_name": "BatchNormalization", "config": {"name": "bn4h_branch2c", "trainable": true, "dtype": "float32", "axis": [1], "momentum": 0.1, "epsilon": 1e-05, "center": true, "scale": true, "beta_initializer": {"class_name": "Zeros", "config": {}}, "gamma_initializer": {"class_name": "Ones", "config": {}}, "moving_mean_initializer": {"class_name": "Zeros", "config": {}}, "moving_variance_initializer": {"class_name": "Ones", "config": {}}, "beta_regularizer": null, "gamma_regularizer": null, "beta_constraint": null, "gamma_constraint": null}, "name": "bn4h_branch2c", "inbound_nodes": [[["res4h_branch2c", 0, 0, {}]]]}, {"class_name": "Add", "config": {"name": "add_14", "trainable": true, "dtype": "float32"}, "name": "add_14", "inbound_nodes": [[["bn4h_branch2c", 0, 0, {}], ["activation_42", 0, 0, {}]]]}, {"class_name": "Activation", "config": {"name": "activation_45", "trainable": true, "dtype": "float32", "activation": "relu"}, "name": "activation_45", "inbound_nodes": [[["add_14", 0, 0, {}]]]}, {"class_name": "Conv2D", "config": {"name": "res4i_branch2a", "trainable": true, "dtype": "float32", "filters": 1024, "kernel_size": [1, 1], "strides": [1, 1], "padding": "valid", "data_format": "channels_first", "dilation_rate": [1, 1], "groups": 1, "activation": "linear", "use_bias": false, "kernel_initializer": {"class_name": "GlorotUniform", "config": {"seed": null}}, "bias_initializer": {"class_name": "Zeros", "config": {}}, "kernel_regularizer": null, "bias_regularizer": null, "activity_regularizer": null, "kernel_constraint": null, "bias_constraint": null}, "name": "res4i_branch2a", "inbound_nodes": [[["activation_45", 0, 0, {}]]]}, {"class_name": "BatchNormalization", "config": {"name": "bn4i_branch2a", "trainable": true, "dtype": "float32", "axis": [1], "momentum": 0.1, "epsilon": 1e-05, "center": true, "scale": true, "beta_initializer": {"class_name": "Zeros", "config": {}}, "gamma_initializer": {"class_name": "Ones", "config": {}}, "moving_mean_initializer": {"class_name": "Zeros", "config": {}}, "moving_variance_initializer": {"class_name": "Ones", "config": {}}, "beta_regularizer": null, "gamma_regularizer": null, "beta_constraint": null, "gamma_constraint": null}, "name": "bn4i_branch2a", "inbound_nodes": [[["res4i_branch2a", 0, 0, {}]]]}, {"class_name": "Activation", "config": {"name": "activation_46", "trainable": true, "dtype": "float32", "activation": "relu"}, "name": "activation_46", "inbound_nodes": [[["bn4i_branch2a", 0, 0, {}]]]}, {"class_name": "Conv2D", "config": {"name": "res4i_branch2b", "trainable": true, "dtype": "float32", "filters": 256, "kernel_size": [3, 3], "strides": [1, 1], "padding": "same", "data_format": "channels_first", "dilation_rate": [2, 2], "groups": 1, "activation": "linear", "use_bias": false, "kernel_initializer": {"class_name": "GlorotUniform", "config": {"seed": null}}, "bias_initializer": {"class_name": "Zeros", "config": {}}, "kernel_regularizer": null, "bias_regularizer": null, "activity_regularizer": null, "kernel_constraint": null, "bias_constraint": null}, "name": "res4i_branch2b", "inbound_nodes": [[["activation_46", 0, 0, {}]]]}, {"class_name": "BatchNormalization", "config": {"name": "bn4i_branch2b", "trainable": true, "dtype": "float32", "axis": [1], "momentum": 0.1, "epsilon": 1e-05, "center": true, "scale": true, "beta_initializer": {"class_name": "Zeros", "config": {}}, "gamma_initializer": {"class_name": "Ones", "config": {}}, "moving_mean_initializer": {"class_name": "Zeros", "config": {}}, "moving_variance_initializer": {"class_name": "Ones", "config": {}}, "beta_regularizer": null, "gamma_regularizer": null, "beta_constraint": null, "gamma_constraint": null}, "name": "bn4i_branch2b", "inbound_nodes": [[["res4i_branch2b", 0, 0, {}]]]}, {"class_name": "Activation", "config": {"name": "activation_47", "trainable": true, "dtype": "float32", "activation": "relu"}, "name": "activation_47", "inbound_nodes": [[["bn4i_branch2b", 0, 0, {}]]]}, {"class_name": "Conv2D", "config": {"name": "res4i_branch2c", "trainable": true, "dtype": "float32", "filters": 256, "kernel_size": [1, 1], "strides": [1, 1], "padding": "valid", "data_format": "channels_first", "dilation_rate": [1, 1], "groups": 1, "activation": "linear", "use_bias": false, "kernel_initializer": {"class_name": "GlorotUniform", "config": {"seed": null}}, "bias_initializer": {"class_name": "Zeros", "config": {}}, "kernel_regularizer": null, "bias_regularizer": null, "activity_regularizer": null, "kernel_constraint": null, "bias_constraint": null}, "name": "res4i_branch2c", "inbound_nodes": [[["activation_47", 0, 0, {}]]]}, {"class_name": "BatchNormalization", "config": {"name": "bn4i_branch2c", "trainable": true, "dtype": "float32", "axis": [1], "momentum": 0.1, "epsilon": 1e-05, "center": true, "scale": true, "beta_initializer": {"class_name": "Zeros", "config": {}}, "gamma_initializer": {"class_name": "Ones", "config": {}}, "moving_mean_initializer": {"class_name": "Zeros", "config": {}}, "moving_variance_initializer": {"class_name": "Ones", "config": {}}, "beta_regularizer": null, "gamma_regularizer": null, "beta_constraint": null, "gamma_constraint": null}, "name": "bn4i_branch2c", "inbound_nodes": [[["res4i_branch2c", 0, 0, {}]]]}, {"class_name": "Add", "config": {"name": "add_15", "trainable": true, "dtype": "float32"}, "name": "add_15", "inbound_nodes": [[["bn4i_branch2c", 0, 0, {}], ["activation_45", 0, 0, {}]]]}, {"class_name": "Activation", "config": {"name": "activation_48", "trainable": true, "dtype": "float32", "activation": "relu"}, "name": "activation_48", "inbound_nodes": [[["add_15", 0, 0, {}]]]}, {"class_name": "Conv2D", "config": {"name": "res4j_branch2a", "trainable": true, "dtype": "float32", "filters": 1024, "kernel_size": [1, 1], "strides": [1, 1], "padding": "valid", "data_format": "channels_first", "dilation_rate": [1, 1], "groups": 1, "activation": "linear", "use_bias": false, "kernel_initializer": {"class_name": "GlorotUniform", "config": {"seed": null}}, "bias_initializer": {"class_name": "Zeros", "config": {}}, "kernel_regularizer": null, "bias_regularizer": null, "activity_regularizer": null, "kernel_constraint": null, "bias_constraint": null}, "name": "res4j_branch2a", "inbound_nodes": [[["activation_48", 0, 0, {}]]]}, {"class_name": "BatchNormalization", "config": {"name": "bn4j_branch2a", "trainable": true, "dtype": "float32", "axis": [1], "momentum": 0.1, "epsilon": 1e-05, "center": true, "scale": true, "beta_initializer": {"class_name": "Zeros", "config": {}}, "gamma_initializer": {"class_name": "Ones", "config": {}}, "moving_mean_initializer": {"class_name": "Zeros", "config": {}}, "moving_variance_initializer": {"class_name": "Ones", "config": {}}, "beta_regularizer": null, "gamma_regularizer": null, "beta_constraint": null, "gamma_constraint": null}, "name": "bn4j_branch2a", "inbound_nodes": [[["res4j_branch2a", 0, 0, {}]]]}, {"class_name": "Activation", "config": {"name": "activation_49", "trainable": true, "dtype": "float32", "activation": "relu"}, "name": "activation_49", "inbound_nodes": [[["bn4j_branch2a", 0, 0, {}]]]}, {"class_name": "Conv2D", "config": {"name": "res4j_branch2b", "trainable": true, "dtype": "float32", "filters": 256, "kernel_size": [3, 3], "strides": [1, 1], "padding": "same", "data_format": "channels_first", "dilation_rate": [2, 2], "groups": 1, "activation": "linear", "use_bias": false, "kernel_initializer": {"class_name": "GlorotUniform", "config": {"seed": null}}, "bias_initializer": {"class_name": "Zeros", "config": {}}, "kernel_regularizer": null, "bias_regularizer": null, "activity_regularizer": null, "kernel_constraint": null, "bias_constraint": null}, "name": "res4j_branch2b", "inbound_nodes": [[["activation_49", 0, 0, {}]]]}, {"class_name": "BatchNormalization", "config": {"name": "bn4j_branch2b", "trainable": true, "dtype": "float32", "axis": [1], "momentum": 0.1, "epsilon": 1e-05, "center": true, "scale": true, "beta_initializer": {"class_name": "Zeros", "config": {}}, "gamma_initializer": {"class_name": "Ones", "config": {}}, "moving_mean_initializer": {"class_name": "Zeros", "config": {}}, "moving_variance_initializer": {"class_name": "Ones", "config": {}}, "beta_regularizer": null, "gamma_regularizer": null, "beta_constraint": null, "gamma_constraint": null}, "name": "bn4j_branch2b", "inbound_nodes": [[["res4j_branch2b", 0, 0, {}]]]}, {"class_name": "Activation", "config": {"name": "activation_50", "trainable": true, "dtype": "float32", "activation": "relu"}, "name": "activation_50", "inbound_nodes": [[["bn4j_branch2b", 0, 0, {}]]]}, {"class_name": "Conv2D", "config": {"name": "res4j_branch2c", "trainable": true, "dtype": "float32", "filters": 256, "kernel_size": [1, 1], "strides": [1, 1], "padding": "valid", "data_format": "channels_first", "dilation_rate": [1, 1], "groups": 1, "activation": "linear", "use_bias": false, "kernel_initializer": {"class_name": "GlorotUniform", "config": {"seed": null}}, "bias_initializer": {"class_name": "Zeros", "config": {}}, "kernel_regularizer": null, "bias_regularizer": null, "activity_regularizer": null, "kernel_constraint": null, "bias_constraint": null}, "name": "res4j_branch2c", "inbound_nodes": [[["activation_50", 0, 0, {}]]]}, {"class_name": "BatchNormalization", "config": {"name": "bn4j_branch2c", "trainable": true, "dtype": "float32", "axis": [1], "momentum": 0.1, "epsilon": 1e-05, "center": true, "scale": true, "beta_initializer": {"class_name": "Zeros", "config": {}}, "gamma_initializer": {"class_name": "Ones", "config": {}}, "moving_mean_initializer": {"class_name": "Zeros", "config": {}}, "moving_variance_initializer": {"class_name": "Ones", "config": {}}, "beta_regularizer": null, "gamma_regularizer": null, "beta_constraint": null, "gamma_constraint": null}, "name": "bn4j_branch2c", "inbound_nodes": [[["res4j_branch2c", 0, 0, {}]]]}, {"class_name": "Add", "config": {"name": "add_16", "trainable": true, "dtype": "float32"}, "name": "add_16", "inbound_nodes": [[["bn4j_branch2c", 0, 0, {}], ["activation_48", 0, 0, {}]]]}, {"class_name": "Activation", "config": {"name": "activation_51", "trainable": true, "dtype": "float32", "activation": "relu"}, "name": "activation_51", "inbound_nodes": [[["add_16", 0, 0, {}]]]}, {"class_name": "Conv2D", "config": {"name": "res4k_branch2a", "trainable": true, "dtype": "float32", "filters": 1024, "kernel_size": [1, 1], "strides": [1, 1], "padding": "valid", "data_format": "channels_first", "dilation_rate": [1, 1], "groups": 1, "activation": "linear", "use_bias": false, "kernel_initializer": {"class_name": "GlorotUniform", "config": {"seed": null}}, "bias_initializer": {"class_name": "Zeros", "config": {}}, "kernel_regularizer": null, "bias_regularizer": null, "activity_regularizer": null, "kernel_constraint": null, "bias_constraint": null}, "name": "res4k_branch2a", "inbound_nodes": [[["activation_51", 0, 0, {}]]]}, {"class_name": "BatchNormalization", "config": {"name": "bn4k_branch2a", "trainable": true, "dtype": "float32", "axis": [1], "momentum": 0.1, "epsilon": 1e-05, "center": true, "scale": true, "beta_initializer": {"class_name": "Zeros", "config": {}}, "gamma_initializer": {"class_name": "Ones", "config": {}}, "moving_mean_initializer": {"class_name": "Zeros", "config": {}}, "moving_variance_initializer": {"class_name": "Ones", "config": {}}, "beta_regularizer": null, "gamma_regularizer": null, "beta_constraint": null, "gamma_constraint": null}, "name": "bn4k_branch2a", "inbound_nodes": [[["res4k_branch2a", 0, 0, {}]]]}, {"class_name": "Activation", "config": {"name": "activation_52", "trainable": true, "dtype": "float32", "activation": "relu"}, "name": "activation_52", "inbound_nodes": [[["bn4k_branch2a", 0, 0, {}]]]}, {"class_name": "Conv2D", "config": {"name": "res4k_branch2b", "trainable": true, "dtype": "float32", "filters": 256, "kernel_size": [3, 3], "strides": [1, 1], "padding": "same", "data_format": "channels_first", "dilation_rate": [2, 2], "groups": 1, "activation": "linear", "use_bias": false, "kernel_initializer": {"class_name": "GlorotUniform", "config": {"seed": null}}, "bias_initializer": {"class_name": "Zeros", "config": {}}, "kernel_regularizer": null, "bias_regularizer": null, "activity_regularizer": null, "kernel_constraint": null, "bias_constraint": null}, "name": "res4k_branch2b", "inbound_nodes": [[["activation_52", 0, 0, {}]]]}, {"class_name": "BatchNormalization", "config": {"name": "bn4k_branch2b", "trainable": true, "dtype": "float32", "axis": [1], "momentum": 0.1, "epsilon": 1e-05, "center": true, "scale": true, "beta_initializer": {"class_name": "Zeros", "config": {}}, "gamma_initializer": {"class_name": "Ones", "config": {}}, "moving_mean_initializer": {"class_name": "Zeros", "config": {}}, "moving_variance_initializer": {"class_name": "Ones", "config": {}}, "beta_regularizer": null, "gamma_regularizer": null, "beta_constraint": null, "gamma_constraint": null}, "name": "bn4k_branch2b", "inbound_nodes": [[["res4k_branch2b", 0, 0, {}]]]}, {"class_name": "Activation", "config": {"name": "activation_53", "trainable": true, "dtype": "float32", "activation": "relu"}, "name": "activation_53", "inbound_nodes": [[["bn4k_branch2b", 0, 0, {}]]]}, {"class_name": "Conv2D", "config": {"name": "res4k_branch2c", "trainable": true, "dtype": "float32", "filters": 256, "kernel_size": [1, 1], "strides": [1, 1], "padding": "valid", "data_format": "channels_first", "dilation_rate": [1, 1], "groups": 1, "activation": "linear", "use_bias": false, "kernel_initializer": {"class_name": "GlorotUniform", "config": {"seed": null}}, "bias_initializer": {"class_name": "Zeros", "config": {}}, "kernel_regularizer": null, "bias_regularizer": null, "activity_regularizer": null, "kernel_constraint": null, "bias_constraint": null}, "name": "res4k_branch2c", "inbound_nodes": [[["activation_53", 0, 0, {}]]]}, {"class_name": "BatchNormalization", "config": {"name": "bn4k_branch2c", "trainable": true, "dtype": "float32", "axis": [1], "momentum": 0.1, "epsilon": 1e-05, "center": true, "scale": true, "beta_initializer": {"class_name": "Zeros", "config": {}}, "gamma_initializer": {"class_name": "Ones", "config": {}}, "moving_mean_initializer": {"class_name": "Zeros", "config": {}}, "moving_variance_initializer": {"class_name": "Ones", "config": {}}, "beta_regularizer": null, "gamma_regularizer": null, "beta_constraint": null, "gamma_constraint": null}, "name": "bn4k_branch2c", "inbound_nodes": [[["res4k_branch2c", 0, 0, {}]]]}, {"class_name": "Add", "config": {"name": "add_17", "trainable": true, "dtype": "float32"}, "name": "add_17", "inbound_nodes": [[["bn4k_branch2c", 0, 0, {}], ["activation_51", 0, 0, {}]]]}, {"class_name": "Activation", "config": {"name": "activation_54", "trainable": true, "dtype": "float32", "activation": "relu"}, "name": "activation_54", "inbound_nodes": [[["add_17", 0, 0, {}]]]}, {"class_name": "Conv2D", "config": {"name": "res4l_branch2a", "trainable": true, "dtype": "float32", "filters": 1024, "kernel_size": [1, 1], "strides": [1, 1], "padding": "valid", "data_format": "channels_first", "dilation_rate": [1, 1], "groups": 1, "activation": "linear", "use_bias": false, "kernel_initializer": {"class_name": "GlorotUniform", "config": {"seed": null}}, "bias_initializer": {"class_name": "Zeros", "config": {}}, "kernel_regularizer": null, "bias_regularizer": null, "activity_regularizer": null, "kernel_constraint": null, "bias_constraint": null}, "name": "res4l_branch2a", "inbound_nodes": [[["activation_54", 0, 0, {}]]]}, {"class_name": "BatchNormalization", "config": {"name": "bn4l_branch2a", "trainable": true, "dtype": "float32", "axis": [1], "momentum": 0.1, "epsilon": 1e-05, "center": true, "scale": true, "beta_initializer": {"class_name": "Zeros", "config": {}}, "gamma_initializer": {"class_name": "Ones", "config": {}}, "moving_mean_initializer": {"class_name": "Zeros", "config": {}}, "moving_variance_initializer": {"class_name": "Ones", "config": {}}, "beta_regularizer": null, "gamma_regularizer": null, "beta_constraint": null, "gamma_constraint": null}, "name": "bn4l_branch2a", "inbound_nodes": [[["res4l_branch2a", 0, 0, {}]]]}, {"class_name": "Activation", "config": {"name": "activation_55", "trainable": true, "dtype": "float32", "activation": "relu"}, "name": "activation_55", "inbound_nodes": [[["bn4l_branch2a", 0, 0, {}]]]}, {"class_name": "Conv2D", "config": {"name": "res4l_branch2b", "trainable": true, "dtype": "float32", "filters": 256, "kernel_size": [3, 3], "strides": [1, 1], "padding": "same", "data_format": "channels_first", "dilation_rate": [2, 2], "groups": 1, "activation": "linear", "use_bias": false, "kernel_initializer": {"class_name": "GlorotUniform", "config": {"seed": null}}, "bias_initializer": {"class_name": "Zeros", "config": {}}, "kernel_regularizer": null, "bias_regularizer": null, "activity_regularizer": null, "kernel_constraint": null, "bias_constraint": null}, "name": "res4l_branch2b", "inbound_nodes": [[["activation_55", 0, 0, {}]]]}, {"class_name": "BatchNormalization", "config": {"name": "bn4l_branch2b", "trainable": true, "dtype": "float32", "axis": [1], "momentum": 0.1, "epsilon": 1e-05, "center": true, "scale": true, "beta_initializer": {"class_name": "Zeros", "config": {}}, "gamma_initializer": {"class_name": "Ones", "config": {}}, "moving_mean_initializer": {"class_name": "Zeros", "config": {}}, "moving_variance_initializer": {"class_name": "Ones", "config": {}}, "beta_regularizer": null, "gamma_regularizer": null, "beta_constraint": null, "gamma_constraint": null}, "name": "bn4l_branch2b", "inbound_nodes": [[["res4l_branch2b", 0, 0, {}]]]}, {"class_name": "Activation", "config": {"name": "activation_56", "trainable": true, "dtype": "float32", "activation": "relu"}, "name": "activation_56", "inbound_nodes": [[["bn4l_branch2b", 0, 0, {}]]]}, {"class_name": "Conv2D", "config": {"name": "res4l_branch2c", "trainable": true, "dtype": "float32", "filters": 256, "kernel_size": [1, 1], "strides": [1, 1], "padding": "valid", "data_format": "channels_first", "dilation_rate": [1, 1], "groups": 1, "activation": "linear", "use_bias": false, "kernel_initializer": {"class_name": "GlorotUniform", "config": {"seed": null}}, "bias_initializer": {"class_name": "Zeros", "config": {}}, "kernel_regularizer": null, "bias_regularizer": null, "activity_regularizer": null, "kernel_constraint": null, "bias_constraint": null}, "name": "res4l_branch2c", "inbound_nodes": [[["activation_56", 0, 0, {}]]]}, {"class_name": "BatchNormalization", "config": {"name": "bn4l_branch2c", "trainable": true, "dtype": "float32", "axis": [1], "momentum": 0.1, "epsilon": 1e-05, "center": true, "scale": true, "beta_initializer": {"class_name": "Zeros", "config": {}}, "gamma_initializer": {"class_name": "Ones", "config": {}}, "moving_mean_initializer": {"class_name": "Zeros", "config": {}}, "moving_variance_initializer": {"class_name": "Ones", "config": {}}, "beta_regularizer": null, "gamma_regularizer": null, "beta_constraint": null, "gamma_constraint": null}, "name": "bn4l_branch2c", "inbound_nodes": [[["res4l_branch2c", 0, 0, {}]]]}, {"class_name": "Add", "config": {"name": "add_18", "trainable": true, "dtype": "float32"}, "name": "add_18", "inbound_nodes": [[["bn4l_branch2c", 0, 0, {}], ["activation_54", 0, 0, {}]]]}, {"class_name": "Activation", "config": {"name": "activation_57", "trainable": true, "dtype": "float32", "activation": "relu"}, "name": "activation_57", "inbound_nodes": [[["add_18", 0, 0, {}]]]}, {"class_name": "Conv2D", "config": {"name": "res4m_branch2a", "trainable": true, "dtype": "float32", "filters": 1024, "kernel_size": [1, 1], "strides": [1, 1], "padding": "valid", "data_format": "channels_first", "dilation_rate": [1, 1], "groups": 1, "activation": "linear", "use_bias": false, "kernel_initializer": {"class_name": "GlorotUniform", "config": {"seed": null}}, "bias_initializer": {"class_name": "Zeros", "config": {}}, "kernel_regularizer": null, "bias_regularizer": null, "activity_regularizer": null, "kernel_constraint": null, "bias_constraint": null}, "name": "res4m_branch2a", "inbound_nodes": [[["activation_57", 0, 0, {}]]]}, {"class_name": "BatchNormalization", "config": {"name": "bn4m_branch2a", "trainable": true, "dtype": "float32", "axis": [1], "momentum": 0.1, "epsilon": 1e-05, "center": true, "scale": true, "beta_initializer": {"class_name": "Zeros", "config": {}}, "gamma_initializer": {"class_name": "Ones", "config": {}}, "moving_mean_initializer": {"class_name": "Zeros", "config": {}}, "moving_variance_initializer": {"class_name": "Ones", "config": {}}, "beta_regularizer": null, "gamma_regularizer": null, "beta_constraint": null, "gamma_constraint": null}, "name": "bn4m_branch2a", "inbound_nodes": [[["res4m_branch2a", 0, 0, {}]]]}, {"class_name": "Activation", "config": {"name": "activation_58", "trainable": true, "dtype": "float32", "activation": "relu"}, "name": "activation_58", "inbound_nodes": [[["bn4m_branch2a", 0, 0, {}]]]}, {"class_name": "Conv2D", "config": {"name": "res4m_branch2b", "trainable": true, "dtype": "float32", "filters": 256, "kernel_size": [3, 3], "strides": [1, 1], "padding": "same", "data_format": "channels_first", "dilation_rate": [2, 2], "groups": 1, "activation": "linear", "use_bias": false, "kernel_initializer": {"class_name": "GlorotUniform", "config": {"seed": null}}, "bias_initializer": {"class_name": "Zeros", "config": {}}, "kernel_regularizer": null, "bias_regularizer": null, "activity_regularizer": null, "kernel_constraint": null, "bias_constraint": null}, "name": "res4m_branch2b", "inbound_nodes": [[["activation_58", 0, 0, {}]]]}, {"class_name": "BatchNormalization", "config": {"name": "bn4m_branch2b", "trainable": true, "dtype": "float32", "axis": [1], "momentum": 0.1, "epsilon": 1e-05, "center": true, "scale": true, "beta_initializer": {"class_name": "Zeros", "config": {}}, "gamma_initializer": {"class_name": "Ones", "config": {}}, "moving_mean_initializer": {"class_name": "Zeros", "config": {}}, "moving_variance_initializer": {"class_name": "Ones", "config": {}}, "beta_regularizer": null, "gamma_regularizer": null, "beta_constraint": null, "gamma_constraint": null}, "name": "bn4m_branch2b", "inbound_nodes": [[["res4m_branch2b", 0, 0, {}]]]}, {"class_name": "Activation", "config": {"name": "activation_59", "trainable": true, "dtype": "float32", "activation": "relu"}, "name": "activation_59", "inbound_nodes": [[["bn4m_branch2b", 0, 0, {}]]]}, {"class_name": "Conv2D", "config": {"name": "res4m_branch2c", "trainable": true, "dtype": "float32", "filters": 256, "kernel_size": [1, 1], "strides": [1, 1], "padding": "valid", "data_format": "channels_first", "dilation_rate": [1, 1], "groups": 1, "activation": "linear", "use_bias": false, "kernel_initializer": {"class_name": "GlorotUniform", "config": {"seed": null}}, "bias_initializer": {"class_name": "Zeros", "config": {}}, "kernel_regularizer": null, "bias_regularizer": null, "activity_regularizer": null, "kernel_constraint": null, "bias_constraint": null}, "name": "res4m_branch2c", "inbound_nodes": [[["activation_59", 0, 0, {}]]]}, {"class_name": "BatchNormalization", "config": {"name": "bn4m_branch2c", "trainable": true, "dtype": "float32", "axis": [1], "momentum": 0.1, "epsilon": 1e-05, "center": true, "scale": true, "beta_initializer": {"class_name": "Zeros", "config": {}}, "gamma_initializer": {"class_name": "Ones", "config": {}}, "moving_mean_initializer": {"class_name": "Zeros", "config": {}}, "moving_variance_initializer": {"class_name": "Ones", "config": {}}, "beta_regularizer": null, "gamma_regularizer": null, "beta_constraint": null, "gamma_constraint": null}, "name": "bn4m_branch2c", "inbound_nodes": [[["res4m_branch2c", 0, 0, {}]]]}, {"class_name": "Add", "config": {"name": "add_19", "trainable": true, "dtype": "float32"}, "name": "add_19", "inbound_nodes": [[["bn4m_branch2c", 0, 0, {}], ["activation_57", 0, 0, {}]]]}, {"class_name": "Activation", "config": {"name": "activation_60", "trainable": true, "dtype": "float32", "activation": "relu"}, "name": "activation_60", "inbound_nodes": [[["add_19", 0, 0, {}]]]}, {"class_name": "Conv2D", "config": {"name": "res4n_branch2a", "trainable": true, "dtype": "float32", "filters": 1024, "kernel_size": [1, 1], "strides": [1, 1], "padding": "valid", "data_format": "channels_first", "dilation_rate": [1, 1], "groups": 1, "activation": "linear", "use_bias": false, "kernel_initializer": {"class_name": "GlorotUniform", "config": {"seed": null}}, "bias_initializer": {"class_name": "Zeros", "config": {}}, "kernel_regularizer": null, "bias_regularizer": null, "activity_regularizer": null, "kernel_constraint": null, "bias_constraint": null}, "name": "res4n_branch2a", "inbound_nodes": [[["activation_60", 0, 0, {}]]]}, {"class_name": "BatchNormalization", "config": {"name": "bn4n_branch2a", "trainable": true, "dtype": "float32", "axis": [1], "momentum": 0.1, "epsilon": 1e-05, "center": true, "scale": true, "beta_initializer": {"class_name": "Zeros", "config": {}}, "gamma_initializer": {"class_name": "Ones", "config": {}}, "moving_mean_initializer": {"class_name": "Zeros", "config": {}}, "moving_variance_initializer": {"class_name": "Ones", "config": {}}, "beta_regularizer": null, "gamma_regularizer": null, "beta_constraint": null, "gamma_constraint": null}, "name": "bn4n_branch2a", "inbound_nodes": [[["res4n_branch2a", 0, 0, {}]]]}, {"class_name": "Activation", "config": {"name": "activation_61", "trainable": true, "dtype": "float32", "activation": "relu"}, "name": "activation_61", "inbound_nodes": [[["bn4n_branch2a", 0, 0, {}]]]}, {"class_name": "Conv2D", "config": {"name": "res4n_branch2b", "trainable": true, "dtype": "float32", "filters": 256, "kernel_size": [3, 3], "strides": [1, 1], "padding": "same", "data_format": "channels_first", "dilation_rate": [2, 2], "groups": 1, "activation": "linear", "use_bias": false, "kernel_initializer": {"class_name": "GlorotUniform", "config": {"seed": null}}, "bias_initializer": {"class_name": "Zeros", "config": {}}, "kernel_regularizer": null, "bias_regularizer": null, "activity_regularizer": null, "kernel_constraint": null, "bias_constraint": null}, "name": "res4n_branch2b", "inbound_nodes": [[["activation_61", 0, 0, {}]]]}, {"class_name": "BatchNormalization", "config": {"name": "bn4n_branch2b", "trainable": true, "dtype": "float32", "axis": [1], "momentum": 0.1, "epsilon": 1e-05, "center": true, "scale": true, "beta_initializer": {"class_name": "Zeros", "config": {}}, "gamma_initializer": {"class_name": "Ones", "config": {}}, "moving_mean_initializer": {"class_name": "Zeros", "config": {}}, "moving_variance_initializer": {"class_name": "Ones", "config": {}}, "beta_regularizer": null, "gamma_regularizer": null, "beta_constraint": null, "gamma_constraint": null}, "name": "bn4n_branch2b", "inbound_nodes": [[["res4n_branch2b", 0, 0, {}]]]}, {"class_name": "Activation", "config": {"name": "activation_62", "trainable": true, "dtype": "float32", "activation": "relu"}, "name": "activation_62", "inbound_nodes": [[["bn4n_branch2b", 0, 0, {}]]]}, {"class_name": "Conv2D", "config": {"name": "res4n_branch2c", "trainable": true, "dtype": "float32", "filters": 256, "kernel_size": [1, 1], "strides": [1, 1], "padding": "valid", "data_format": "channels_first", "dilation_rate": [1, 1], "groups": 1, "activation": "linear", "use_bias": false, "kernel_initializer": {"class_name": "GlorotUniform", "config": {"seed": null}}, "bias_initializer": {"class_name": "Zeros", "config": {}}, "kernel_regularizer": null, "bias_regularizer": null, "activity_regularizer": null, "kernel_constraint": null, "bias_constraint": null}, "name": "res4n_branch2c", "inbound_nodes": [[["activation_62", 0, 0, {}]]]}, {"class_name": "BatchNormalization", "config": {"name": "bn4n_branch2c", "trainable": true, "dtype": "float32", "axis": [1], "momentum": 0.1, "epsilon": 1e-05, "center": true, "scale": true, "beta_initializer": {"class_name": "Zeros", "config": {}}, "gamma_initializer": {"class_name": "Ones", "config": {}}, "moving_mean_initializer": {"class_name": "Zeros", "config": {}}, "moving_variance_initializer": {"class_name": "Ones", "config": {}}, "beta_regularizer": null, "gamma_regularizer": null, "beta_constraint": null, "gamma_constraint": null}, "name": "bn4n_branch2c", "inbound_nodes": [[["res4n_branch2c", 0, 0, {}]]]}, {"class_name": "Add", "config": {"name": "add_20", "trainable": true, "dtype": "float32"}, "name": "add_20", "inbound_nodes": [[["bn4n_branch2c", 0, 0, {}], ["activation_60", 0, 0, {}]]]}, {"class_name": "Activation", "config": {"name": "activation_63", "trainable": true, "dtype": "float32", "activation": "relu"}, "name": "activation_63", "inbound_nodes": [[["add_20", 0, 0, {}]]]}, {"class_name": "Conv2D", "config": {"name": "res4o_branch2a", "trainable": true, "dtype": "float32", "filters": 1024, "kernel_size": [1, 1], "strides": [1, 1], "padding": "valid", "data_format": "channels_first", "dilation_rate": [1, 1], "groups": 1, "activation": "linear", "use_bias": false, "kernel_initializer": {"class_name": "GlorotUniform", "config": {"seed": null}}, "bias_initializer": {"class_name": "Zeros", "config": {}}, "kernel_regularizer": null, "bias_regularizer": null, "activity_regularizer": null, "kernel_constraint": null, "bias_constraint": null}, "name": "res4o_branch2a", "inbound_nodes": [[["activation_63", 0, 0, {}]]]}, {"class_name": "BatchNormalization", "config": {"name": "bn4o_branch2a", "trainable": true, "dtype": "float32", "axis": [1], "momentum": 0.1, "epsilon": 1e-05, "center": true, "scale": true, "beta_initializer": {"class_name": "Zeros", "config": {}}, "gamma_initializer": {"class_name": "Ones", "config": {}}, "moving_mean_initializer": {"class_name": "Zeros", "config": {}}, "moving_variance_initializer": {"class_name": "Ones", "config": {}}, "beta_regularizer": null, "gamma_regularizer": null, "beta_constraint": null, "gamma_constraint": null}, "name": "bn4o_branch2a", "inbound_nodes": [[["res4o_branch2a", 0, 0, {}]]]}, {"class_name": "Activation", "config": {"name": "activation_64", "trainable": true, "dtype": "float32", "activation": "relu"}, "name": "activation_64", "inbound_nodes": [[["bn4o_branch2a", 0, 0, {}]]]}, {"class_name": "Conv2D", "config": {"name": "res4o_branch2b", "trainable": true, "dtype": "float32", "filters": 256, "kernel_size": [3, 3], "strides": [1, 1], "padding": "same", "data_format": "channels_first", "dilation_rate": [2, 2], "groups": 1, "activation": "linear", "use_bias": false, "kernel_initializer": {"class_name": "GlorotUniform", "config": {"seed": null}}, "bias_initializer": {"class_name": "Zeros", "config": {}}, "kernel_regularizer": null, "bias_regularizer": null, "activity_regularizer": null, "kernel_constraint": null, "bias_constraint": null}, "name": "res4o_branch2b", "inbound_nodes": [[["activation_64", 0, 0, {}]]]}, {"class_name": "BatchNormalization", "config": {"name": "bn4o_branch2b", "trainable": true, "dtype": "float32", "axis": [1], "momentum": 0.1, "epsilon": 1e-05, "center": true, "scale": true, "beta_initializer": {"class_name": "Zeros", "config": {}}, "gamma_initializer": {"class_name": "Ones", "config": {}}, "moving_mean_initializer": {"class_name": "Zeros", "config": {}}, "moving_variance_initializer": {"class_name": "Ones", "config": {}}, "beta_regularizer": null, "gamma_regularizer": null, "beta_constraint": null, "gamma_constraint": null}, "name": "bn4o_branch2b", "inbound_nodes": [[["res4o_branch2b", 0, 0, {}]]]}, {"class_name": "Activation", "config": {"name": "activation_65", "trainable": true, "dtype": "float32", "activation": "relu"}, "name": "activation_65", "inbound_nodes": [[["bn4o_branch2b", 0, 0, {}]]]}, {"class_name": "Conv2D", "config": {"name": "res4o_branch2c", "trainable": true, "dtype": "float32", "filters": 256, "kernel_size": [1, 1], "strides": [1, 1], "padding": "valid", "data_format": "channels_first", "dilation_rate": [1, 1], "groups": 1, "activation": "linear", "use_bias": false, "kernel_initializer": {"class_name": "GlorotUniform", "config": {"seed": null}}, "bias_initializer": {"class_name": "Zeros", "config": {}}, "kernel_regularizer": null, "bias_regularizer": null, "activity_regularizer": null, "kernel_constraint": null, "bias_constraint": null}, "name": "res4o_branch2c", "inbound_nodes": [[["activation_65", 0, 0, {}]]]}, {"class_name": "BatchNormalization", "config": {"name": "bn4o_branch2c", "trainable": true, "dtype": "float32", "axis": [1], "momentum": 0.1, "epsilon": 1e-05, "center": true, "scale": true, "beta_initializer": {"class_name": "Zeros", "config": {}}, "gamma_initializer": {"class_name": "Ones", "config": {}}, "moving_mean_initializer": {"class_name": "Zeros", "config": {}}, "moving_variance_initializer": {"class_name": "Ones", "config": {}}, "beta_regularizer": null, "gamma_regularizer": null, "beta_constraint": null, "gamma_constraint": null}, "name": "bn4o_branch2c", "inbound_nodes": [[["res4o_branch2c", 0, 0, {}]]]}, {"class_name": "Add", "config": {"name": "add_21", "trainable": true, "dtype": "float32"}, "name": "add_21", "inbound_nodes": [[["bn4o_branch2c", 0, 0, {}], ["activation_63", 0, 0, {}]]]}, {"class_name": "Activation", "config": {"name": "activation_66", "trainable": true, "dtype": "float32", "activation": "relu"}, "name": "activation_66", "inbound_nodes": [[["add_21", 0, 0, {}]]]}, {"class_name": "Conv2D", "config": {"name": "res4p_branch2a", "trainable": true, "dtype": "float32", "filters": 1024, "kernel_size": [1, 1], "strides": [1, 1], "padding": "valid", "data_format": "channels_first", "dilation_rate": [1, 1], "groups": 1, "activation": "linear", "use_bias": false, "kernel_initializer": {"class_name": "GlorotUniform", "config": {"seed": null}}, "bias_initializer": {"class_name": "Zeros", "config": {}}, "kernel_regularizer": null, "bias_regularizer": null, "activity_regularizer": null, "kernel_constraint": null, "bias_constraint": null}, "name": "res4p_branch2a", "inbound_nodes": [[["activation_66", 0, 0, {}]]]}, {"class_name": "BatchNormalization", "config": {"name": "bn4p_branch2a", "trainable": true, "dtype": "float32", "axis": [1], "momentum": 0.1, "epsilon": 1e-05, "center": true, "scale": true, "beta_initializer": {"class_name": "Zeros", "config": {}}, "gamma_initializer": {"class_name": "Ones", "config": {}}, "moving_mean_initializer": {"class_name": "Zeros", "config": {}}, "moving_variance_initializer": {"class_name": "Ones", "config": {}}, "beta_regularizer": null, "gamma_regularizer": null, "beta_constraint": null, "gamma_constraint": null}, "name": "bn4p_branch2a", "inbound_nodes": [[["res4p_branch2a", 0, 0, {}]]]}, {"class_name": "Activation", "config": {"name": "activation_67", "trainable": true, "dtype": "float32", "activation": "relu"}, "name": "activation_67", "inbound_nodes": [[["bn4p_branch2a", 0, 0, {}]]]}, {"class_name": "Conv2D", "config": {"name": "res4p_branch2b", "trainable": true, "dtype": "float32", "filters": 256, "kernel_size": [3, 3], "strides": [1, 1], "padding": "same", "data_format": "channels_first", "dilation_rate": [2, 2], "groups": 1, "activation": "linear", "use_bias": false, "kernel_initializer": {"class_name": "GlorotUniform", "config": {"seed": null}}, "bias_initializer": {"class_name": "Zeros", "config": {}}, "kernel_regularizer": null, "bias_regularizer": null, "activity_regularizer": null, "kernel_constraint": null, "bias_constraint": null}, "name": "res4p_branch2b", "inbound_nodes": [[["activation_67", 0, 0, {}]]]}, {"class_name": "BatchNormalization", "config": {"name": "bn4p_branch2b", "trainable": true, "dtype": "float32", "axis": [1], "momentum": 0.1, "epsilon": 1e-05, "center": true, "scale": true, "beta_initializer": {"class_name": "Zeros", "config": {}}, "gamma_initializer": {"class_name": "Ones", "config": {}}, "moving_mean_initializer": {"class_name": "Zeros", "config": {}}, "moving_variance_initializer": {"class_name": "Ones", "config": {}}, "beta_regularizer": null, "gamma_regularizer": null, "beta_constraint": null, "gamma_constraint": null}, "name": "bn4p_branch2b", "inbound_nodes": [[["res4p_branch2b", 0, 0, {}]]]}, {"class_name": "Activation", "config": {"name": "activation_68", "trainable": true, "dtype": "float32", "activation": "relu"}, "name": "activation_68", "inbound_nodes": [[["bn4p_branch2b", 0, 0, {}]]]}, {"class_name": "Conv2D", "config": {"name": "res4p_branch2c", "trainable": true, "dtype": "float32", "filters": 256, "kernel_size": [1, 1], "strides": [1, 1], "padding": "valid", "data_format": "channels_first", "dilation_rate": [1, 1], "groups": 1, "activation": "linear", "use_bias": false, "kernel_initializer": {"class_name": "GlorotUniform", "config": {"seed": null}}, "bias_initializer": {"class_name": "Zeros", "config": {}}, "kernel_regularizer": null, "bias_regularizer": null, "activity_regularizer": null, "kernel_constraint": null, "bias_constraint": null}, "name": "res4p_branch2c", "inbound_nodes": [[["activation_68", 0, 0, {}]]]}, {"class_name": "BatchNormalization", "config": {"name": "bn4p_branch2c", "trainable": true, "dtype": "float32", "axis": [1], "momentum": 0.1, "epsilon": 1e-05, "center": true, "scale": true, "beta_initializer": {"class_name": "Zeros", "config": {}}, "gamma_initializer": {"class_name": "Ones", "config": {}}, "moving_mean_initializer": {"class_name": "Zeros", "config": {}}, "moving_variance_initializer": {"class_name": "Ones", "config": {}}, "beta_regularizer": null, "gamma_regularizer": null, "beta_constraint": null, "gamma_constraint": null}, "name": "bn4p_branch2c", "inbound_nodes": [[["res4p_branch2c", 0, 0, {}]]]}, {"class_name": "Add", "config": {"name": "add_22", "trainable": true, "dtype": "float32"}, "name": "add_22", "inbound_nodes": [[["bn4p_branch2c", 0, 0, {}], ["activation_66", 0, 0, {}]]]}, {"class_name": "Activation", "config": {"name": "activation_69", "trainable": true, "dtype": "float32", "activation": "relu"}, "name": "activation_69", "inbound_nodes": [[["add_22", 0, 0, {}]]]}, {"class_name": "Conv2D", "config": {"name": "res4q_branch2a", "trainable": true, "dtype": "float32", "filters": 1024, "kernel_size": [1, 1], "strides": [1, 1], "padding": "valid", "data_format": "channels_first", "dilation_rate": [1, 1], "groups": 1, "activation": "linear", "use_bias": false, "kernel_initializer": {"class_name": "GlorotUniform", "config": {"seed": null}}, "bias_initializer": {"class_name": "Zeros", "config": {}}, "kernel_regularizer": null, "bias_regularizer": null, "activity_regularizer": null, "kernel_constraint": null, "bias_constraint": null}, "name": "res4q_branch2a", "inbound_nodes": [[["activation_69", 0, 0, {}]]]}, {"class_name": "BatchNormalization", "config": {"name": "bn4q_branch2a", "trainable": true, "dtype": "float32", "axis": [1], "momentum": 0.1, "epsilon": 1e-05, "center": true, "scale": true, "beta_initializer": {"class_name": "Zeros", "config": {}}, "gamma_initializer": {"class_name": "Ones", "config": {}}, "moving_mean_initializer": {"class_name": "Zeros", "config": {}}, "moving_variance_initializer": {"class_name": "Ones", "config": {}}, "beta_regularizer": null, "gamma_regularizer": null, "beta_constraint": null, "gamma_constraint": null}, "name": "bn4q_branch2a", "inbound_nodes": [[["res4q_branch2a", 0, 0, {}]]]}, {"class_name": "Activation", "config": {"name": "activation_70", "trainable": true, "dtype": "float32", "activation": "relu"}, "name": "activation_70", "inbound_nodes": [[["bn4q_branch2a", 0, 0, {}]]]}, {"class_name": "Conv2D", "config": {"name": "res4q_branch2b", "trainable": true, "dtype": "float32", "filters": 256, "kernel_size": [3, 3], "strides": [1, 1], "padding": "same", "data_format": "channels_first", "dilation_rate": [2, 2], "groups": 1, "activation": "linear", "use_bias": false, "kernel_initializer": {"class_name": "GlorotUniform", "config": {"seed": null}}, "bias_initializer": {"class_name": "Zeros", "config": {}}, "kernel_regularizer": null, "bias_regularizer": null, "activity_regularizer": null, "kernel_constraint": null, "bias_constraint": null}, "name": "res4q_branch2b", "inbound_nodes": [[["activation_70", 0, 0, {}]]]}, {"class_name": "BatchNormalization", "config": {"name": "bn4q_branch2b", "trainable": true, "dtype": "float32", "axis": [1], "momentum": 0.1, "epsilon": 1e-05, "center": true, "scale": true, "beta_initializer": {"class_name": "Zeros", "config": {}}, "gamma_initializer": {"class_name": "Ones", "config": {}}, "moving_mean_initializer": {"class_name": "Zeros", "config": {}}, "moving_variance_initializer": {"class_name": "Ones", "config": {}}, "beta_regularizer": null, "gamma_regularizer": null, "beta_constraint": null, "gamma_constraint": null}, "name": "bn4q_branch2b", "inbound_nodes": [[["res4q_branch2b", 0, 0, {}]]]}, {"class_name": "Activation", "config": {"name": "activation_71", "trainable": true, "dtype": "float32", "activation": "relu"}, "name": "activation_71", "inbound_nodes": [[["bn4q_branch2b", 0, 0, {}]]]}, {"class_name": "Conv2D", "config": {"name": "res4q_branch2c", "trainable": true, "dtype": "float32", "filters": 256, "kernel_size": [1, 1], "strides": [1, 1], "padding": "valid", "data_format": "channels_first", "dilation_rate": [1, 1], "groups": 1, "activation": "linear", "use_bias": false, "kernel_initializer": {"class_name": "GlorotUniform", "config": {"seed": null}}, "bias_initializer": {"class_name": "Zeros", "config": {}}, "kernel_regularizer": null, "bias_regularizer": null, "activity_regularizer": null, "kernel_constraint": null, "bias_constraint": null}, "name": "res4q_branch2c", "inbound_nodes": [[["activation_71", 0, 0, {}]]]}, {"class_name": "BatchNormalization", "config": {"name": "bn4q_branch2c", "trainable": true, "dtype": "float32", "axis": [1], "momentum": 0.1, "epsilon": 1e-05, "center": true, "scale": true, "beta_initializer": {"class_name": "Zeros", "config": {}}, "gamma_initializer": {"class_name": "Ones", "config": {}}, "moving_mean_initializer": {"class_name": "Zeros", "config": {}}, "moving_variance_initializer": {"class_name": "Ones", "config": {}}, "beta_regularizer": null, "gamma_regularizer": null, "beta_constraint": null, "gamma_constraint": null}, "name": "bn4q_branch2c", "inbound_nodes": [[["res4q_branch2c", 0, 0, {}]]]}, {"class_name": "Add", "config": {"name": "add_23", "trainable": true, "dtype": "float32"}, "name": "add_23", "inbound_nodes": [[["bn4q_branch2c", 0, 0, {}], ["activation_69", 0, 0, {}]]]}, {"class_name": "Activation", "config": {"name": "activation_72", "trainable": true, "dtype": "float32", "activation": "relu"}, "name": "activation_72", "inbound_nodes": [[["add_23", 0, 0, {}]]]}, {"class_name": "Conv2D", "config": {"name": "res4r_branch2a", "trainable": true, "dtype": "float32", "filters": 1024, "kernel_size": [1, 1], "strides": [1, 1], "padding": "valid", "data_format": "channels_first", "dilation_rate": [1, 1], "groups": 1, "activation": "linear", "use_bias": false, "kernel_initializer": {"class_name": "GlorotUniform", "config": {"seed": null}}, "bias_initializer": {"class_name": "Zeros", "config": {}}, "kernel_regularizer": null, "bias_regularizer": null, "activity_regularizer": null, "kernel_constraint": null, "bias_constraint": null}, "name": "res4r_branch2a", "inbound_nodes": [[["activation_72", 0, 0, {}]]]}, {"class_name": "BatchNormalization", "config": {"name": "bn4r_branch2a", "trainable": true, "dtype": "float32", "axis": [1], "momentum": 0.1, "epsilon": 1e-05, "center": true, "scale": true, "beta_initializer": {"class_name": "Zeros", "config": {}}, "gamma_initializer": {"class_name": "Ones", "config": {}}, "moving_mean_initializer": {"class_name": "Zeros", "config": {}}, "moving_variance_initializer": {"class_name": "Ones", "config": {}}, "beta_regularizer": null, "gamma_regularizer": null, "beta_constraint": null, "gamma_constraint": null}, "name": "bn4r_branch2a", "inbound_nodes": [[["res4r_branch2a", 0, 0, {}]]]}, {"class_name": "Activation", "config": {"name": "activation_73", "trainable": true, "dtype": "float32", "activation": "relu"}, "name": "activation_73", "inbound_nodes": [[["bn4r_branch2a", 0, 0, {}]]]}, {"class_name": "Conv2D", "config": {"name": "res4r_branch2b", "trainable": true, "dtype": "float32", "filters": 256, "kernel_size": [3, 3], "strides": [1, 1], "padding": "same", "data_format": "channels_first", "dilation_rate": [2, 2], "groups": 1, "activation": "linear", "use_bias": false, "kernel_initializer": {"class_name": "GlorotUniform", "config": {"seed": null}}, "bias_initializer": {"class_name": "Zeros", "config": {}}, "kernel_regularizer": null, "bias_regularizer": null, "activity_regularizer": null, "kernel_constraint": null, "bias_constraint": null}, "name": "res4r_branch2b", "inbound_nodes": [[["activation_73", 0, 0, {}]]]}, {"class_name": "BatchNormalization", "config": {"name": "bn4r_branch2b", "trainable": true, "dtype": "float32", "axis": [1], "momentum": 0.1, "epsilon": 1e-05, "center": true, "scale": true, "beta_initializer": {"class_name": "Zeros", "config": {}}, "gamma_initializer": {"class_name": "Ones", "config": {}}, "moving_mean_initializer": {"class_name": "Zeros", "config": {}}, "moving_variance_initializer": {"class_name": "Ones", "config": {}}, "beta_regularizer": null, "gamma_regularizer": null, "beta_constraint": null, "gamma_constraint": null}, "name": "bn4r_branch2b", "inbound_nodes": [[["res4r_branch2b", 0, 0, {}]]]}, {"class_name": "Activation", "config": {"name": "activation_74", "trainable": true, "dtype": "float32", "activation": "relu"}, "name": "activation_74", "inbound_nodes": [[["bn4r_branch2b", 0, 0, {}]]]}, {"class_name": "Conv2D", "config": {"name": "res4r_branch2c", "trainable": true, "dtype": "float32", "filters": 256, "kernel_size": [1, 1], "strides": [1, 1], "padding": "valid", "data_format": "channels_first", "dilation_rate": [1, 1], "groups": 1, "activation": "linear", "use_bias": false, "kernel_initializer": {"class_name": "GlorotUniform", "config": {"seed": null}}, "bias_initializer": {"class_name": "Zeros", "config": {}}, "kernel_regularizer": null, "bias_regularizer": null, "activity_regularizer": null, "kernel_constraint": null, "bias_constraint": null}, "name": "res4r_branch2c", "inbound_nodes": [[["activation_74", 0, 0, {}]]]}, {"class_name": "BatchNormalization", "config": {"name": "bn4r_branch2c", "trainable": true, "dtype": "float32", "axis": [1], "momentum": 0.1, "epsilon": 1e-05, "center": true, "scale": true, "beta_initializer": {"class_name": "Zeros", "config": {}}, "gamma_initializer": {"class_name": "Ones", "config": {}}, "moving_mean_initializer": {"class_name": "Zeros", "config": {}}, "moving_variance_initializer": {"class_name": "Ones", "config": {}}, "beta_regularizer": null, "gamma_regularizer": null, "beta_constraint": null, "gamma_constraint": null}, "name": "bn4r_branch2c", "inbound_nodes": [[["res4r_branch2c", 0, 0, {}]]]}, {"class_name": "Add", "config": {"name": "add_24", "trainable": true, "dtype": "float32"}, "name": "add_24", "inbound_nodes": [[["bn4r_branch2c", 0, 0, {}], ["activation_72", 0, 0, {}]]]}, {"class_name": "Activation", "config": {"name": "activation_75", "trainable": true, "dtype": "float32", "activation": "relu"}, "name": "activation_75", "inbound_nodes": [[["add_24", 0, 0, {}]]]}, {"class_name": "Conv2D", "config": {"name": "res4s_branch2a", "trainable": true, "dtype": "float32", "filters": 1024, "kernel_size": [1, 1], "strides": [1, 1], "padding": "valid", "data_format": "channels_first", "dilation_rate": [1, 1], "groups": 1, "activation": "linear", "use_bias": false, "kernel_initializer": {"class_name": "GlorotUniform", "config": {"seed": null}}, "bias_initializer": {"class_name": "Zeros", "config": {}}, "kernel_regularizer": null, "bias_regularizer": null, "activity_regularizer": null, "kernel_constraint": null, "bias_constraint": null}, "name": "res4s_branch2a", "inbound_nodes": [[["activation_75", 0, 0, {}]]]}, {"class_name": "BatchNormalization", "config": {"name": "bn4s_branch2a", "trainable": true, "dtype": "float32", "axis": [1], "momentum": 0.1, "epsilon": 1e-05, "center": true, "scale": true, "beta_initializer": {"class_name": "Zeros", "config": {}}, "gamma_initializer": {"class_name": "Ones", "config": {}}, "moving_mean_initializer": {"class_name": "Zeros", "config": {}}, "moving_variance_initializer": {"class_name": "Ones", "config": {}}, "beta_regularizer": null, "gamma_regularizer": null, "beta_constraint": null, "gamma_constraint": null}, "name": "bn4s_branch2a", "inbound_nodes": [[["res4s_branch2a", 0, 0, {}]]]}, {"class_name": "Activation", "config": {"name": "activation_76", "trainable": true, "dtype": "float32", "activation": "relu"}, "name": "activation_76", "inbound_nodes": [[["bn4s_branch2a", 0, 0, {}]]]}, {"class_name": "Conv2D", "config": {"name": "res4s_branch2b", "trainable": true, "dtype": "float32", "filters": 256, "kernel_size": [3, 3], "strides": [1, 1], "padding": "same", "data_format": "channels_first", "dilation_rate": [2, 2], "groups": 1, "activation": "linear", "use_bias": false, "kernel_initializer": {"class_name": "GlorotUniform", "config": {"seed": null}}, "bias_initializer": {"class_name": "Zeros", "config": {}}, "kernel_regularizer": null, "bias_regularizer": null, "activity_regularizer": null, "kernel_constraint": null, "bias_constraint": null}, "name": "res4s_branch2b", "inbound_nodes": [[["activation_76", 0, 0, {}]]]}, {"class_name": "BatchNormalization", "config": {"name": "bn4s_branch2b", "trainable": true, "dtype": "float32", "axis": [1], "momentum": 0.1, "epsilon": 1e-05, "center": true, "scale": true, "beta_initializer": {"class_name": "Zeros", "config": {}}, "gamma_initializer": {"class_name": "Ones", "config": {}}, "moving_mean_initializer": {"class_name": "Zeros", "config": {}}, "moving_variance_initializer": {"class_name": "Ones", "config": {}}, "beta_regularizer": null, "gamma_regularizer": null, "beta_constraint": null, "gamma_constraint": null}, "name": "bn4s_branch2b", "inbound_nodes": [[["res4s_branch2b", 0, 0, {}]]]}, {"class_name": "Activation", "config": {"name": "activation_77", "trainable": true, "dtype": "float32", "activation": "relu"}, "name": "activation_77", "inbound_nodes": [[["bn4s_branch2b", 0, 0, {}]]]}, {"class_name": "Conv2D", "config": {"name": "res4s_branch2c", "trainable": true, "dtype": "float32", "filters": 256, "kernel_size": [1, 1], "strides": [1, 1], "padding": "valid", "data_format": "channels_first", "dilation_rate": [1, 1], "groups": 1, "activation": "linear", "use_bias": false, "kernel_initializer": {"class_name": "GlorotUniform", "config": {"seed": null}}, "bias_initializer": {"class_name": "Zeros", "config": {}}, "kernel_regularizer": null, "bias_regularizer": null, "activity_regularizer": null, "kernel_constraint": null, "bias_constraint": null}, "name": "res4s_branch2c", "inbound_nodes": [[["activation_77", 0, 0, {}]]]}, {"class_name": "BatchNormalization", "config": {"name": "bn4s_branch2c", "trainable": true, "dtype": "float32", "axis": [1], "momentum": 0.1, "epsilon": 1e-05, "center": true, "scale": true, "beta_initializer": {"class_name": "Zeros", "config": {}}, "gamma_initializer": {"class_name": "Ones", "config": {}}, "moving_mean_initializer": {"class_name": "Zeros", "config": {}}, "moving_variance_initializer": {"class_name": "Ones", "config": {}}, "beta_regularizer": null, "gamma_regularizer": null, "beta_constraint": null, "gamma_constraint": null}, "name": "bn4s_branch2c", "inbound_nodes": [[["res4s_branch2c", 0, 0, {}]]]}, {"class_name": "Add", "config": {"name": "add_25", "trainable": true, "dtype": "float32"}, "name": "add_25", "inbound_nodes": [[["bn4s_branch2c", 0, 0, {}], ["activation_75", 0, 0, {}]]]}, {"class_name": "Activation", "config": {"name": "activation_78", "trainable": true, "dtype": "float32", "activation": "relu"}, "name": "activation_78", "inbound_nodes": [[["add_25", 0, 0, {}]]]}, {"class_name": "Conv2D", "config": {"name": "res4t_branch2a", "trainable": true, "dtype": "float32", "filters": 1024, "kernel_size": [1, 1], "strides": [1, 1], "padding": "valid", "data_format": "channels_first", "dilation_rate": [1, 1], "groups": 1, "activation": "linear", "use_bias": false, "kernel_initializer": {"class_name": "GlorotUniform", "config": {"seed": null}}, "bias_initializer": {"class_name": "Zeros", "config": {}}, "kernel_regularizer": null, "bias_regularizer": null, "activity_regularizer": null, "kernel_constraint": null, "bias_constraint": null}, "name": "res4t_branch2a", "inbound_nodes": [[["activation_78", 0, 0, {}]]]}, {"class_name": "BatchNormalization", "config": {"name": "bn4t_branch2a", "trainable": true, "dtype": "float32", "axis": [1], "momentum": 0.1, "epsilon": 1e-05, "center": true, "scale": true, "beta_initializer": {"class_name": "Zeros", "config": {}}, "gamma_initializer": {"class_name": "Ones", "config": {}}, "moving_mean_initializer": {"class_name": "Zeros", "config": {}}, "moving_variance_initializer": {"class_name": "Ones", "config": {}}, "beta_regularizer": null, "gamma_regularizer": null, "beta_constraint": null, "gamma_constraint": null}, "name": "bn4t_branch2a", "inbound_nodes": [[["res4t_branch2a", 0, 0, {}]]]}, {"class_name": "Activation", "config": {"name": "activation_79", "trainable": true, "dtype": "float32", "activation": "relu"}, "name": "activation_79", "inbound_nodes": [[["bn4t_branch2a", 0, 0, {}]]]}, {"class_name": "Conv2D", "config": {"name": "res4t_branch2b", "trainable": true, "dtype": "float32", "filters": 256, "kernel_size": [3, 3], "strides": [1, 1], "padding": "same", "data_format": "channels_first", "dilation_rate": [2, 2], "groups": 1, "activation": "linear", "use_bias": false, "kernel_initializer": {"class_name": "GlorotUniform", "config": {"seed": null}}, "bias_initializer": {"class_name": "Zeros", "config": {}}, "kernel_regularizer": null, "bias_regularizer": null, "activity_regularizer": null, "kernel_constraint": null, "bias_constraint": null}, "name": "res4t_branch2b", "inbound_nodes": [[["activation_79", 0, 0, {}]]]}, {"class_name": "BatchNormalization", "config": {"name": "bn4t_branch2b", "trainable": true, "dtype": "float32", "axis": [1], "momentum": 0.1, "epsilon": 1e-05, "center": true, "scale": true, "beta_initializer": {"class_name": "Zeros", "config": {}}, "gamma_initializer": {"class_name": "Ones", "config": {}}, "moving_mean_initializer": {"class_name": "Zeros", "config": {}}, "moving_variance_initializer": {"class_name": "Ones", "config": {}}, "beta_regularizer": null, "gamma_regularizer": null, "beta_constraint": null, "gamma_constraint": null}, "name": "bn4t_branch2b", "inbound_nodes": [[["res4t_branch2b", 0, 0, {}]]]}, {"class_name": "Activation", "config": {"name": "activation_80", "trainable": true, "dtype": "float32", "activation": "relu"}, "name": "activation_80", "inbound_nodes": [[["bn4t_branch2b", 0, 0, {}]]]}, {"class_name": "Conv2D", "config": {"name": "res4t_branch2c", "trainable": true, "dtype": "float32", "filters": 256, "kernel_size": [1, 1], "strides": [1, 1], "padding": "valid", "data_format": "channels_first", "dilation_rate": [1, 1], "groups": 1, "activation": "linear", "use_bias": false, "kernel_initializer": {"class_name": "GlorotUniform", "config": {"seed": null}}, "bias_initializer": {"class_name": "Zeros", "config": {}}, "kernel_regularizer": null, "bias_regularizer": null, "activity_regularizer": null, "kernel_constraint": null, "bias_constraint": null}, "name": "res4t_branch2c", "inbound_nodes": [[["activation_80", 0, 0, {}]]]}, {"class_name": "BatchNormalization", "config": {"name": "bn4t_branch2c", "trainable": true, "dtype": "float32", "axis": [1], "momentum": 0.1, "epsilon": 1e-05, "center": true, "scale": true, "beta_initializer": {"class_name": "Zeros", "config": {}}, "gamma_initializer": {"class_name": "Ones", "config": {}}, "moving_mean_initializer": {"class_name": "Zeros", "config": {}}, "moving_variance_initializer": {"class_name": "Ones", "config": {}}, "beta_regularizer": null, "gamma_regularizer": null, "beta_constraint": null, "gamma_constraint": null}, "name": "bn4t_branch2c", "inbound_nodes": [[["res4t_branch2c", 0, 0, {}]]]}, {"class_name": "Add", "config": {"name": "add_26", "trainable": true, "dtype": "float32"}, "name": "add_26", "inbound_nodes": [[["bn4t_branch2c", 0, 0, {}], ["activation_78", 0, 0, {}]]]}, {"class_name": "Activation", "config": {"name": "activation_81", "trainable": true, "dtype": "float32", "activation": "relu"}, "name": "activation_81", "inbound_nodes": [[["add_26", 0, 0, {}]]]}, {"class_name": "Conv2D", "config": {"name": "res4u_branch2a", "trainable": true, "dtype": "float32", "filters": 1024, "kernel_size": [1, 1], "strides": [1, 1], "padding": "valid", "data_format": "channels_first", "dilation_rate": [1, 1], "groups": 1, "activation": "linear", "use_bias": false, "kernel_initializer": {"class_name": "GlorotUniform", "config": {"seed": null}}, "bias_initializer": {"class_name": "Zeros", "config": {}}, "kernel_regularizer": null, "bias_regularizer": null, "activity_regularizer": null, "kernel_constraint": null, "bias_constraint": null}, "name": "res4u_branch2a", "inbound_nodes": [[["activation_81", 0, 0, {}]]]}, {"class_name": "BatchNormalization", "config": {"name": "bn4u_branch2a", "trainable": true, "dtype": "float32", "axis": [1], "momentum": 0.1, "epsilon": 1e-05, "center": true, "scale": true, "beta_initializer": {"class_name": "Zeros", "config": {}}, "gamma_initializer": {"class_name": "Ones", "config": {}}, "moving_mean_initializer": {"class_name": "Zeros", "config": {}}, "moving_variance_initializer": {"class_name": "Ones", "config": {}}, "beta_regularizer": null, "gamma_regularizer": null, "beta_constraint": null, "gamma_constraint": null}, "name": "bn4u_branch2a", "inbound_nodes": [[["res4u_branch2a", 0, 0, {}]]]}, {"class_name": "Activation", "config": {"name": "activation_82", "trainable": true, "dtype": "float32", "activation": "relu"}, "name": "activation_82", "inbound_nodes": [[["bn4u_branch2a", 0, 0, {}]]]}, {"class_name": "Conv2D", "config": {"name": "res4u_branch2b", "trainable": true, "dtype": "float32", "filters": 256, "kernel_size": [3, 3], "strides": [1, 1], "padding": "same", "data_format": "channels_first", "dilation_rate": [2, 2], "groups": 1, "activation": "linear", "use_bias": false, "kernel_initializer": {"class_name": "GlorotUniform", "config": {"seed": null}}, "bias_initializer": {"class_name": "Zeros", "config": {}}, "kernel_regularizer": null, "bias_regularizer": null, "activity_regularizer": null, "kernel_constraint": null, "bias_constraint": null}, "name": "res4u_branch2b", "inbound_nodes": [[["activation_82", 0, 0, {}]]]}, {"class_name": "BatchNormalization", "config": {"name": "bn4u_branch2b", "trainable": true, "dtype": "float32", "axis": [1], "momentum": 0.1, "epsilon": 1e-05, "center": true, "scale": true, "beta_initializer": {"class_name": "Zeros", "config": {}}, "gamma_initializer": {"class_name": "Ones", "config": {}}, "moving_mean_initializer": {"class_name": "Zeros", "config": {}}, "moving_variance_initializer": {"class_name": "Ones", "config": {}}, "beta_regularizer": null, "gamma_regularizer": null, "beta_constraint": null, "gamma_constraint": null}, "name": "bn4u_branch2b", "inbound_nodes": [[["res4u_branch2b", 0, 0, {}]]]}, {"class_name": "Activation", "config": {"name": "activation_83", "trainable": true, "dtype": "float32", "activation": "relu"}, "name": "activation_83", "inbound_nodes": [[["bn4u_branch2b", 0, 0, {}]]]}, {"class_name": "Conv2D", "config": {"name": "res4u_branch2c", "trainable": true, "dtype": "float32", "filters": 256, "kernel_size": [1, 1], "strides": [1, 1], "padding": "valid", "data_format": "channels_first", "dilation_rate": [1, 1], "groups": 1, "activation": "linear", "use_bias": false, "kernel_initializer": {"class_name": "GlorotUniform", "config": {"seed": null}}, "bias_initializer": {"class_name": "Zeros", "config": {}}, "kernel_regularizer": null, "bias_regularizer": null, "activity_regularizer": null, "kernel_constraint": null, "bias_constraint": null}, "name": "res4u_branch2c", "inbound_nodes": [[["activation_83", 0, 0, {}]]]}, {"class_name": "BatchNormalization", "config": {"name": "bn4u_branch2c", "trainable": true, "dtype": "float32", "axis": [1], "momentum": 0.1, "epsilon": 1e-05, "center": true, "scale": true, "beta_initializer": {"class_name": "Zeros", "config": {}}, "gamma_initializer": {"class_name": "Ones", "config": {}}, "moving_mean_initializer": {"class_name": "Zeros", "config": {}}, "moving_variance_initializer": {"class_name": "Ones", "config": {}}, "beta_regularizer": null, "gamma_regularizer": null, "beta_constraint": null, "gamma_constraint": null}, "name": "bn4u_branch2c", "inbound_nodes": [[["res4u_branch2c", 0, 0, {}]]]}, {"class_name": "Add", "config": {"name": "add_27", "trainable": true, "dtype": "float32"}, "name": "add_27", "inbound_nodes": [[["bn4u_branch2c", 0, 0, {}], ["activation_81", 0, 0, {}]]]}, {"class_name": "Activation", "config": {"name": "activation_84", "trainable": true, "dtype": "float32", "activation": "relu"}, "name": "activation_84", "inbound_nodes": [[["add_27", 0, 0, {}]]]}, {"class_name": "Conv2D", "config": {"name": "res4v_branch2a", "trainable": true, "dtype": "float32", "filters": 1024, "kernel_size": [1, 1], "strides": [1, 1], "padding": "valid", "data_format": "channels_first", "dilation_rate": [1, 1], "groups": 1, "activation": "linear", "use_bias": false, "kernel_initializer": {"class_name": "GlorotUniform", "config": {"seed": null}}, "bias_initializer": {"class_name": "Zeros", "config": {}}, "kernel_regularizer": null, "bias_regularizer": null, "activity_regularizer": null, "kernel_constraint": null, "bias_constraint": null}, "name": "res4v_branch2a", "inbound_nodes": [[["activation_84", 0, 0, {}]]]}, {"class_name": "BatchNormalization", "config": {"name": "bn4v_branch2a", "trainable": true, "dtype": "float32", "axis": [1], "momentum": 0.1, "epsilon": 1e-05, "center": true, "scale": true, "beta_initializer": {"class_name": "Zeros", "config": {}}, "gamma_initializer": {"class_name": "Ones", "config": {}}, "moving_mean_initializer": {"class_name": "Zeros", "config": {}}, "moving_variance_initializer": {"class_name": "Ones", "config": {}}, "beta_regularizer": null, "gamma_regularizer": null, "beta_constraint": null, "gamma_constraint": null}, "name": "bn4v_branch2a", "inbound_nodes": [[["res4v_branch2a", 0, 0, {}]]]}, {"class_name": "Activation", "config": {"name": "activation_85", "trainable": true, "dtype": "float32", "activation": "relu"}, "name": "activation_85", "inbound_nodes": [[["bn4v_branch2a", 0, 0, {}]]]}, {"class_name": "Conv2D", "config": {"name": "res4v_branch2b", "trainable": true, "dtype": "float32", "filters": 256, "kernel_size": [3, 3], "strides": [1, 1], "padding": "same", "data_format": "channels_first", "dilation_rate": [2, 2], "groups": 1, "activation": "linear", "use_bias": false, "kernel_initializer": {"class_name": "GlorotUniform", "config": {"seed": null}}, "bias_initializer": {"class_name": "Zeros", "config": {}}, "kernel_regularizer": null, "bias_regularizer": null, "activity_regularizer": null, "kernel_constraint": null, "bias_constraint": null}, "name": "res4v_branch2b", "inbound_nodes": [[["activation_85", 0, 0, {}]]]}, {"class_name": "BatchNormalization", "config": {"name": "bn4v_branch2b", "trainable": true, "dtype": "float32", "axis": [1], "momentum": 0.1, "epsilon": 1e-05, "center": true, "scale": true, "beta_initializer": {"class_name": "Zeros", "config": {}}, "gamma_initializer": {"class_name": "Ones", "config": {}}, "moving_mean_initializer": {"class_name": "Zeros", "config": {}}, "moving_variance_initializer": {"class_name": "Ones", "config": {}}, "beta_regularizer": null, "gamma_regularizer": null, "beta_constraint": null, "gamma_constraint": null}, "name": "bn4v_branch2b", "inbound_nodes": [[["res4v_branch2b", 0, 0, {}]]]}, {"class_name": "Activation", "config": {"name": "activation_86", "trainable": true, "dtype": "float32", "activation": "relu"}, "name": "activation_86", "inbound_nodes": [[["bn4v_branch2b", 0, 0, {}]]]}, {"class_name": "Conv2D", "config": {"name": "res4v_branch2c", "trainable": true, "dtype": "float32", "filters": 256, "kernel_size": [1, 1], "strides": [1, 1], "padding": "valid", "data_format": "channels_first", "dilation_rate": [1, 1], "groups": 1, "activation": "linear", "use_bias": false, "kernel_initializer": {"class_name": "GlorotUniform", "config": {"seed": null}}, "bias_initializer": {"class_name": "Zeros", "config": {}}, "kernel_regularizer": null, "bias_regularizer": null, "activity_regularizer": null, "kernel_constraint": null, "bias_constraint": null}, "name": "res4v_branch2c", "inbound_nodes": [[["activation_86", 0, 0, {}]]]}, {"class_name": "BatchNormalization", "config": {"name": "bn4v_branch2c", "trainable": true, "dtype": "float32", "axis": [1], "momentum": 0.1, "epsilon": 1e-05, "center": true, "scale": true, "beta_initializer": {"class_name": "Zeros", "config": {}}, "gamma_initializer": {"class_name": "Ones", "config": {}}, "moving_mean_initializer": {"class_name": "Zeros", "config": {}}, "moving_variance_initializer": {"class_name": "Ones", "config": {}}, "beta_regularizer": null, "gamma_regularizer": null, "beta_constraint": null, "gamma_constraint": null}, "name": "bn4v_branch2c", "inbound_nodes": [[["res4v_branch2c", 0, 0, {}]]]}, {"class_name": "Add", "config": {"name": "add_28", "trainable": true, "dtype": "float32"}, "name": "add_28", "inbound_nodes": [[["bn4v_branch2c", 0, 0, {}], ["activation_84", 0, 0, {}]]]}, {"class_name": "Activation", "config": {"name": "activation_87", "trainable": true, "dtype": "float32", "activation": "relu"}, "name": "activation_87", "inbound_nodes": [[["add_28", 0, 0, {}]]]}, {"class_name": "Conv2D", "config": {"name": "res4w_branch2a", "trainable": true, "dtype": "float32", "filters": 1024, "kernel_size": [1, 1], "strides": [1, 1], "padding": "valid", "data_format": "channels_first", "dilation_rate": [1, 1], "groups": 1, "activation": "linear", "use_bias": false, "kernel_initializer": {"class_name": "GlorotUniform", "config": {"seed": null}}, "bias_initializer": {"class_name": "Zeros", "config": {}}, "kernel_regularizer": null, "bias_regularizer": null, "activity_regularizer": null, "kernel_constraint": null, "bias_constraint": null}, "name": "res4w_branch2a", "inbound_nodes": [[["activation_87", 0, 0, {}]]]}, {"class_name": "BatchNormalization", "config": {"name": "bn4w_branch2a", "trainable": true, "dtype": "float32", "axis": [1], "momentum": 0.1, "epsilon": 1e-05, "center": true, "scale": true, "beta_initializer": {"class_name": "Zeros", "config": {}}, "gamma_initializer": {"class_name": "Ones", "config": {}}, "moving_mean_initializer": {"class_name": "Zeros", "config": {}}, "moving_variance_initializer": {"class_name": "Ones", "config": {}}, "beta_regularizer": null, "gamma_regularizer": null, "beta_constraint": null, "gamma_constraint": null}, "name": "bn4w_branch2a", "inbound_nodes": [[["res4w_branch2a", 0, 0, {}]]]}, {"class_name": "Activation", "config": {"name": "activation_88", "trainable": true, "dtype": "float32", "activation": "relu"}, "name": "activation_88", "inbound_nodes": [[["bn4w_branch2a", 0, 0, {}]]]}, {"class_name": "Conv2D", "config": {"name": "res4w_branch2b", "trainable": true, "dtype": "float32", "filters": 256, "kernel_size": [3, 3], "strides": [1, 1], "padding": "same", "data_format": "channels_first", "dilation_rate": [2, 2], "groups": 1, "activation": "linear", "use_bias": false, "kernel_initializer": {"class_name": "GlorotUniform", "config": {"seed": null}}, "bias_initializer": {"class_name": "Zeros", "config": {}}, "kernel_regularizer": null, "bias_regularizer": null, "activity_regularizer": null, "kernel_constraint": null, "bias_constraint": null}, "name": "res4w_branch2b", "inbound_nodes": [[["activation_88", 0, 0, {}]]]}, {"class_name": "BatchNormalization", "config": {"name": "bn4w_branch2b", "trainable": true, "dtype": "float32", "axis": [1], "momentum": 0.1, "epsilon": 1e-05, "center": true, "scale": true, "beta_initializer": {"class_name": "Zeros", "config": {}}, "gamma_initializer": {"class_name": "Ones", "config": {}}, "moving_mean_initializer": {"class_name": "Zeros", "config": {}}, "moving_variance_initializer": {"class_name": "Ones", "config": {}}, "beta_regularizer": null, "gamma_regularizer": null, "beta_constraint": null, "gamma_constraint": null}, "name": "bn4w_branch2b", "inbound_nodes": [[["res4w_branch2b", 0, 0, {}]]]}, {"class_name": "Activation", "config": {"name": "activation_89", "trainable": true, "dtype": "float32", "activation": "relu"}, "name": "activation_89", "inbound_nodes": [[["bn4w_branch2b", 0, 0, {}]]]}, {"class_name": "Conv2D", "config": {"name": "res4w_branch2c", "trainable": true, "dtype": "float32", "filters": 256, "kernel_size": [1, 1], "strides": [1, 1], "padding": "valid", "data_format": "channels_first", "dilation_rate": [1, 1], "groups": 1, "activation": "linear", "use_bias": false, "kernel_initializer": {"class_name": "GlorotUniform", "config": {"seed": null}}, "bias_initializer": {"class_name": "Zeros", "config": {}}, "kernel_regularizer": null, "bias_regularizer": null, "activity_regularizer": null, "kernel_constraint": null, "bias_constraint": null}, "name": "res4w_branch2c", "inbound_nodes": [[["activation_89", 0, 0, {}]]]}, {"class_name": "BatchNormalization", "config": {"name": "bn4w_branch2c", "trainable": true, "dtype": "float32", "axis": [1], "momentum": 0.1, "epsilon": 1e-05, "center": true, "scale": true, "beta_initializer": {"class_name": "Zeros", "config": {}}, "gamma_initializer": {"class_name": "Ones", "config": {}}, "moving_mean_initializer": {"class_name": "Zeros", "config": {}}, "moving_variance_initializer": {"class_name": "Ones", "config": {}}, "beta_regularizer": null, "gamma_regularizer": null, "beta_constraint": null, "gamma_constraint": null}, "name": "bn4w_branch2c", "inbound_nodes": [[["res4w_branch2c", 0, 0, {}]]]}, {"class_name": "Add", "config": {"name": "add_29", "trainable": true, "dtype": "float32"}, "name": "add_29", "inbound_nodes": [[["bn4w_branch2c", 0, 0, {}], ["activation_87", 0, 0, {}]]]}, {"class_name": "Activation", "config": {"name": "activation_90", "trainable": true, "dtype": "float32", "activation": "relu"}, "name": "activation_90", "inbound_nodes": [[["add_29", 0, 0, {}]]]}, {"class_name": "Conv2D", "config": {"name": "res5a_branch2a", "trainable": true, "dtype": "float32", "filters": 2048, "kernel_size": [1, 1], "strides": [1, 1], "padding": "valid", "data_format": "channels_first", "dilation_rate": [1, 1], "groups": 1, "activation": "linear", "use_bias": false, "kernel_initializer": {"class_name": "GlorotUniform", "config": {"seed": null}}, "bias_initializer": {"class_name": "Zeros", "config": {}}, "kernel_regularizer": null, "bias_regularizer": null, "activity_regularizer": null, "kernel_constraint": null, "bias_constraint": null}, "name": "res5a_branch2a", "inbound_nodes": [[["activation_90", 0, 0, {}]]]}, {"class_name": "BatchNormalization", "config": {"name": "bn5a_branch2a", "trainable": true, "dtype": "float32", "axis": [1], "momentum": 0.1, "epsilon": 1e-05, "center": true, "scale": true, "beta_initializer": {"class_name": "Zeros", "config": {}}, "gamma_initializer": {"class_name": "Ones", "config": {}}, "moving_mean_initializer": {"class_name": "Zeros", "config": {}}, "moving_variance_initializer": {"class_name": "Ones", "config": {}}, "beta_regularizer": null, "gamma_regularizer": null, "beta_constraint": null, "gamma_constraint": null}, "name": "bn5a_branch2a", "inbound_nodes": [[["res5a_branch2a", 0, 0, {}]]]}, {"class_name": "Activation", "config": {"name": "activation_91", "trainable": true, "dtype": "float32", "activation": "relu"}, "name": "activation_91", "inbound_nodes": [[["bn5a_branch2a", 0, 0, {}]]]}, {"class_name": "Conv2D", "config": {"name": "res5a_branch2b", "trainable": true, "dtype": "float32", "filters": 512, "kernel_size": [3, 3], "strides": [1, 1], "padding": "same", "data_format": "channels_first", "dilation_rate": [4, 4], "groups": 1, "activation": "linear", "use_bias": false, "kernel_initializer": {"class_name": "GlorotUniform", "config": {"seed": null}}, "bias_initializer": {"class_name": "Zeros", "config": {}}, "kernel_regularizer": null, "bias_regularizer": null, "activity_regularizer": null, "kernel_constraint": null, "bias_constraint": null}, "name": "res5a_branch2b", "inbound_nodes": [[["activation_91", 0, 0, {}]]]}, {"class_name": "BatchNormalization", "config": {"name": "bn5a_branch2b", "trainable": true, "dtype": "float32", "axis": [1], "momentum": 0.1, "epsilon": 1e-05, "center": true, "scale": true, "beta_initializer": {"class_name": "Zeros", "config": {}}, "gamma_initializer": {"class_name": "Ones", "config": {}}, "moving_mean_initializer": {"class_name": "Zeros", "config": {}}, "moving_variance_initializer": {"class_name": "Ones", "config": {}}, "beta_regularizer": null, "gamma_regularizer": null, "beta_constraint": null, "gamma_constraint": null}, "name": "bn5a_branch2b", "inbound_nodes": [[["res5a_branch2b", 0, 0, {}]]]}, {"class_name": "Activation", "config": {"name": "activation_92", "trainable": true, "dtype": "float32", "activation": "relu"}, "name": "activation_92", "inbound_nodes": [[["bn5a_branch2b", 0, 0, {}]]]}, {"class_name": "Conv2D", "config": {"name": "res5a_branch2c", "trainable": true, "dtype": "float32", "filters": 512, "kernel_size": [1, 1], "strides": [1, 1], "padding": "valid", "data_format": "channels_first", "dilation_rate": [1, 1], "groups": 1, "activation": "linear", "use_bias": false, "kernel_initializer": {"class_name": "GlorotUniform", "config": {"seed": null}}, "bias_initializer": {"class_name": "Zeros", "config": {}}, "kernel_regularizer": null, "bias_regularizer": null, "activity_regularizer": null, "kernel_constraint": null, "bias_constraint": null}, "name": "res5a_branch2c", "inbound_nodes": [[["activation_92", 0, 0, {}]]]}, {"class_name": "Conv2D", "config": {"name": "res5a_branch1", "trainable": true, "dtype": "float32", "filters": 512, "kernel_size": [1, 1], "strides": [1, 1], "padding": "valid", "data_format": "channels_first", "dilation_rate": [1, 1], "groups": 1, "activation": "linear", "use_bias": false, "kernel_initializer": {"class_name": "GlorotUniform", "config": {"seed": null}}, "bias_initializer": {"class_name": "Zeros", "config": {}}, "kernel_regularizer": null, "bias_regularizer": null, "activity_regularizer": null, "kernel_constraint": null, "bias_constraint": null}, "name": "res5a_branch1", "inbound_nodes": [[["activation_90", 0, 0, {}]]]}, {"class_name": "BatchNormalization", "config": {"name": "bn5a_branch2c", "trainable": true, "dtype": "float32", "axis": [1], "momentum": 0.1, "epsilon": 1e-05, "center": true, "scale": true, "beta_initializer": {"class_name": "Zeros", "config": {}}, "gamma_initializer": {"class_name": "Ones", "config": {}}, "moving_mean_initializer": {"class_name": "Zeros", "config": {}}, "moving_variance_initializer": {"class_name": "Ones", "config": {}}, "beta_regularizer": null, "gamma_regularizer": null, "beta_constraint": null, "gamma_constraint": null}, "name": "bn5a_branch2c", "inbound_nodes": [[["res5a_branch2c", 0, 0, {}]]]}, {"class_name": "BatchNormalization", "config": {"name": "bn5a_branch1", "trainable": true, "dtype": "float32", "axis": [1], "momentum": 0.1, "epsilon": 1e-05, "center": true, "scale": true, "beta_initializer": {"class_name": "Zeros", "config": {}}, "gamma_initializer": {"class_name": "Ones", "config": {}}, "moving_mean_initializer": {"class_name": "Zeros", "config": {}}, "moving_variance_initializer": {"class_name": "Ones", "config": {}}, "bet…
 "config": {}}, "moving_mean_initializer": {"class_name": "Zeros", "config": {}}, "moving_variance_initializer": {"class_name": "Ones", "config": {}}, "beta_regularizer": null, "gamma_regularizer": null, "beta_constraint": null, "gamma_constraint": null}, "name": "class_psp_6_bn", "inbound_nodes": [[["class_psp_6_conv", 0, 0, {}]]]}, {"class_name": "Activation", "config": {"name": "activation_100", "trainable": true, "dtype": "float32", "activation": "relu"}, "name": "activation_100", "inbound_nodes": [[["class_psp_1_bn", 0, 0, {}]]]}, {"class_name": "Activation", "config": {"name": "activation_101", "trainable": true, "dtype": "float32", "activation": "relu"}, "name": "activation_101", "inbound_nodes": [[["class_psp_2_bn", 0, 0, {}]]]}, {"class_name": "Activation", "config": {"name": "activation_102", "trainable": true, "dtype": "float32", "activation": "relu"}, "name": "activation_102", "inbound_nodes": [[["class_psp_3_bn", 0, 0, {}]]]}, {"class_name": "Activation", "config": {"name": "activation_103", "trainable": true, "dtype": "float32", "activation": "relu"}, "name": "activation_103", "inbound_nodes": [[["class_psp_6_bn", 0, 0, {}]]]}, {"class_name": "UpSampling2D", "config": {"name": "up_sampling2d", "trainable": true, "dtype": "float32", "size": [64, 64], "data_format": "channels_first", "interpolation": "bilinear"}, "name": "up_sampling2d", "inbound_nodes": [[["activation_100", 0, 0, {}]]]}, {"class_name": "UpSampling2D", "config": {"name": "up_sampling2d_1", "trainable": true, "dtype": "float32", "size": [32, 32], "data_format": "channels_first", "interpolation": "bilinear"}, "name": "up_sampling2d_1", "inbound_nodes": [[["activation_101", 0, 0, {}]]]}, {"class_name": "UpSampling2D", "config": {"name": "up_sampling2d_2", "trainable": true, "dtype": "float32", "size": [21, 21], "data_format": "channels_first", "interpolation": "bilinear"}, "name": "up_sampling2d_2", "inbound_nodes": [[["activation_102", 0, 0, {}]]]}, {"class_name": "UpSampling2D", "config": {"name": "up_sampling2d_3", "trainable": true, "dtype": "float32", "size": [10, 10], "data_format": "channels_first", "interpolation": "bilinear"}, "name": "up_sampling2d_3", "inbound_nodes": [[["activation_103", 0, 0, {}]]]}, {"class_name": "ZeroPadding2D", "config": {"name": "zero_padding2d_2", "trainable": true, "dtype": "float32", "padding": [[0, 0], [0, 0]], "data_format": "channels_first"}, "name": "zero_padding2d_2", "inbound_nodes": [[["up_sampling2d", 0, 0, {}]]]}, {"class_name": "ZeroPadding2D", "config": {"name": "zero_padding2d_3", "trainable": true, "dtype": "float32", "padding": [[0, 0], [0, 0]], "data_format": "channels_first"}, "name": "zero_padding2d_3", "inbound_nodes": [[["up_sampling2d_1", 0, 0, {}]]]}, {"class_name": "ZeroPadding2D", "config": {"name": "zero_padding2d_4", "trainable": true, "dtype": "float32", "padding": [[0, 1], [0, 1]], "data_format": "channels_first"}, "name": "zero_padding2d_4", "inbound_nodes": [[["up_sampling2d_2", 0, 0, {}]]]}, {"class_name": "ZeroPadding2D", "config": {"name": "zero_padding2d_5", "trainable": true, "dtype": "float32", "padding": [[2, 2], [2, 2]], "data_format": "channels_first"}, "name": "zero_padding2d_5", "inbound_nodes": [[["up_sampling2d_3", 0, 0, {}]]]}, {"class_name": "Concatenate", "config": {"name": "concatenate", "trainable": true, "dtype": "float32", "axis": 1}, "name": "concatenate", "inbound_nodes": [[["zero_padding2d_2", 0, 0, {}], ["zero_padding2d_3", 0, 0, {}], ["zero_padding2d_4", 0, 0, {}], ["zero_padding2d_5", 0, 0, {}], ["activation_99", 0, 0, {}]]]}, {"class_name": "Conv2D", "config": {"name": "class_psp_reduce_conv", "trainable": true, "dtype": "float32", "filters": 512, "kernel_size": [1, 1], "strides": [1, 1], "padding": "same", "data_format": "channels_first", "dilation_rate": [1, 1], "groups": 1, "activation": "linear", "use_bias": false, "kernel_initializer": {"class_name": "GlorotUniform", "config": {"seed": null}}, "bias_initializer": {"class_name": "Zeros", "config": {}}, "kernel_regularizer": null, "bias_regularizer": null, "activity_regularizer": null, "kernel_constraint": null, "bias_constraint": null}, "name": "class_psp_reduce_conv", "inbound_nodes": [[["concatenate", 0, 0, {}]]]}, {"class_name": "BatchNormalization", "config": {"name": "class_psp_reduce_bn", "trainable": true, "dtype": "float32", "axis": [1], "momentum": 0.1, "epsilon": 1e-05, "center": true, "scale": true, "beta_initializer": {"class_name": "Zeros", "config": {}}, "gamma_initializer": {"class_name": "Ones", "config": {}}, "moving_mean_initializer": {"class_name": "Zeros", "config": {}}, "moving_variance_initializer": {"class_name": "Ones", "config": {}}, "beta_regularizer": null, "gamma_regularizer": null, "beta_constraint": null, "gamma_constraint": null}, "name": "class_psp_reduce_bn", "inbound_nodes": [[["class_psp_reduce_conv", 0, 0, {}]]]}, {"class_name": "Activation", "config": {"name": "activation_104", "trainable": true, "dtype": "float32", "activation": "relu"}, "name": "activation_104", "inbound_nodes": [[["class_psp_reduce_bn", 0, 0, {}]]]}, {"class_name": "Conv2D", "config": {"name": "class_psp_final_conv", "trainable": true, "dtype": "float32", "filters": 1, "kernel_size": [1, 1], "strides": [1, 1], "padding": "valid", "data_format": "channels_first", "dilation_rate": [1, 1], "groups": 1, "activation": "linear", "use_bias": true, "kernel_initializer": {"class_name": "GlorotUniform", "config": {"seed": null}}, "bias_initializer": {"class_name": "Zeros", "config": {}}, "kernel_regularizer": null, "bias_regularizer": null, "activity_regularizer": null, "kernel_constraint": null, "bias_constraint": null}, "name": "class_psp_final_conv", "inbound_nodes": [[["activation_104", 0, 0, {}]]]}, {"class_name": "UpSampling2D", "config": {"name": "last_upsampling", "trainable": true, "dtype": "float32", "size": [8, 8], "data_format": "channels_first", "interpolation": "bilinear"}, "name": "last_upsampling", "inbound_nodes": [[["class_psp_final_conv", 0, 0, {}]]]}, {"class_name": "ZeroPadding2D", "config": {"name": "zero_padding2d_6", "trainable": true, "dtype": "float32", "padding": [[0, 0], [0, 0]], "data_format": "channels_first"}, "name": "zero_padding2d_6", "inbound_nodes": [[["last_upsampling", 0, 0, {}]]]}], "input_layers": [["input_1", 0, 0]], "output_layers": [["zero_padding2d_6", 0, 0]]}}, "training_config": {"loss": "<lambda>", "metrics": [], "weighted_metrics": null, "loss_weights": null, "optimizer_config": {"class_name": "SGD", "config": {"name": "SGD", "learning_rate": 0.01, "decay": 0.0, "momentum": 0.9, "nesterov": false}}}}, "weightsManifest": [{"paths": ["group1-shard1of94.bin", "group1-shard2of94.bin", "group1-shard3of94.bin", "group1-shard4of94.bin", "group1-shard5of94.bin", "group1-shard6of94.bin", "group1-shard7of94.bin", "group1-shard8of94.bin", "group1-shard9of94.bin", "group1-shard10of94.bin", "group1-shard11of94.bin", "group1-shard12of94.bin", "group1-shard13of94.bin", "group1-shard14of94.bin", "group1-shard15of94.bin", "group1-shard16of94.bin", "group1-shard17of94.bin", "group1-shard18of94.bin", "group1-shard19of94.bin", "group1-shard20of94.bin", "group1-shard21of94.bin", "group1-shard22of94.bin", "group1-shard23of94.bin", "group1-shard24of94.bin", "group1-shard25of94.bin", "group1-shard26of94.bin", "group1-shard27of94.bin", "group1-shard28of94.bin", "group1-shard29of94.bin", "group1-shard30of94.bin", "group1-shard31of94.bin", "group1-shard32of94.bin", "group1-shard33of94.bin", "group1-shard34of94.bin", "group1-shard35of94.bin", "group1-shard36of94.bin", "group1-shard37of94.bin", "group1-shard38of94.bin", "group1-shard39of94.bin", "group1-shard40of94.bin", "group1-shard41of94.bin", "group1-shard42of94.bin", "group1-shard43of94.bin", "group1-shard44of94.bin", "group1-shard45of94.bin", "group1-shard46of94.bin", "group1-shard47of94.bin", "group1-shard48of94.bin", "group1-shard49of94.bin", "group1-shard50of94.bin", "group1-shard51of94.bin", "group1-shard52of94.bin", "group1-shard53of94.bin", "group1-shard54of94.bin", "group1-shard55of94.bin", "group1-shard56of94.bin", "group1-shard57of94.bin", "group1-shard58of94.bin", "group1-shard59of94.bin", "group1-shard60of94.bin", "group1-shard61of94.bin", "group1-shard62of94.bin", "group1-shard63of94.bin", "group1-shard64of94.bin", "group1-shard65of94.bin", "group1-shard66of94.bin", "group1-shard67of94.bin", "group1-shard68of94.bin", "group1-shard69of94.bin", "group1-shard70of94.bin", "group1-shard71of94.bin", "group1-shard72of94.bin", "group1-shard73of94.bin", "group1-shard74of94.bin", "group1-shard75of94.bin", "group1-shard76of94.bin", "group1-shard77of94.bin", "group1-shard78of94.bin", "group1-shard79of94.bin", "group1-shard80of94.bin", "group1-shard81of94.bin", "group1-shard82of94.bin", "group1-shard83of94.bin", "group1-shard84of94.bin", "group1-shard85of94.bin", "group1-shard86of94.bin", "group1-shard87of94.bin", "group1-shard88of94.bin", "group1-shard89of94.bin", "group1-shard90of94.bin", "group1-shard91of94.bin", "group1-shard92of94.bin", "group1-shard93of94.bin", "group1-shard94of94.bin"], "weights": [{"name": "bn2a_branch1/gamma", "shape": [64], "dtype": "float32"}, {"name": "bn2a_branch1/beta", "shape": [64], "dtype": "float32"}, {"name": "bn2a_branch1/moving_mean", "shape": [64], "dtype": "float32"}, {"name": "bn2a_branch1/moving_variance", "shape": [64], "dtype": "float32"}, {"name": "bn2a_branch2a/gamma", "shape": [256], "dtype": "float32"}, {"name": "bn2a_branch2a/beta", "shape": [256], "dtype": "float32"}, {"name": "bn2a_branch2a/moving_mean", "shape": [256], "dtype": "float32"}, {"name": "bn2a_branch2a/moving_variance", "shape": [256], "dtype": "float32"}, {"name": "bn2a_branch2b/gamma", "shape": [64], "dtype": "float32"}, {"name": "bn2a_branch2b/beta", "shape": [64], "dtype": "float32"}, {"name": "bn2a_branch2b/moving_mean", "shape": [64], "dtype": "float32"}, {"name": "bn2a_branch2b/moving_variance", "shape": [64], "dtype": "float32"}, {"name": "bn2a_branch2c/gamma", "shape": [64], "dtype": "float32"}, {"name": "bn2a_branch2c/beta", "shape": [64], "dtype": "float32"}, {"name": "bn2a_branch2c/moving_mean", "shape": [64], "dtype": "float32"}, {"name": "bn2a_branch2c/moving_variance", "shape": [64], "dtype": "float32"}, {"name": "bn2b_branch2a/gamma", "shape": [256], "dtype": "float32"}, {"name": "bn2b_branch2a/beta", "shape": [256], "dtype": "float32"}, {"name": "bn2b_branch2a/moving_mean", "shape": [256], "dtype": "float32"}, {"name": "bn2b_branch2a/moving_variance", "shape": [256], "dtype": "float32"}, {"name": "bn2b_branch2b/gamma", "shape": [64], "dtype": "float32"}, {"name": "bn2b_branch2b/beta", "shape": [64], "dtype": "float32"}, {"name": "bn2b_branch2b/moving_mean", "shape": [64], "dtype": "float32"}, {"name": "bn2b_branch2b/moving_variance", "shape": [64], "dtype": "float32"}, {"name": "bn2b_branch2c/gamma", "shape": [64], "dtype": "float32"}, {"name": "bn2b_branch2c/beta", "shape": [64], "dtype": "float32"}, {"name": "bn2b_branch2c/moving_mean", "shape": [64], "dtype": "float32"}, {"name": "bn2b_branch2c/moving_variance", "shape": [64], "dtype": "float32"}, {"name": "bn2c_branch2a/gamma", "shape": [256], "dtype": "float32"}, {"name": "bn2c_branch2a/beta", "shape": [256], "dtype": "float32"}, {"name": "bn2c_branch2a/moving_mean", "shape": [256], "dtype": "float32"}, {"name": "bn2c_branch2a/moving_variance", "shape": [256], "dtype": "float32"}, {"name": "bn2c_branch2b/gamma", "shape": [64], "dtype": "float32"}, {"name": "bn2c_branch2b/beta", "shape": [64], "dtype": "float32"}, {"name": "bn2c_branch2b/moving_mean", "shape": [64], "dtype": "float32"}, {"name": "bn2c_branch2b/moving_variance", "shape": [64], "dtype": "float32"}, {"name": "bn2c_branch2c/gamma", "shape": [64], "dtype": "float32"}, {"name": "bn2c_branch2c/beta", "shape": [64], "dtype": "float32"}, {"name": "bn2c_branch2c/moving_mean", "shape": [64], "dtype": "float32"}, {"name": "bn2c_branch2c/moving_variance", "shape": [64], "dtype": "float32"}, {"name": "bn3a_branch1/gamma", "shape": [128], "dtype": "float32"}, {"name": "bn3a_branch1/beta", "shape": [128], "dtype": "float32"}, {"name": "bn3a_branch1/moving_mean", "shape": [128], "dtype": "float32"}, {"name": "bn3a_branch1/moving_variance", "shape": [128], "dtype": "float32"}, {"name": "bn3a_branch2a/gamma", "shape": [256], "dtype": "float32"}, {"name": "bn3a_branch2a/beta", "shape": [256], "dtype": "float32"}, {"name": "bn3a_branch2a/moving_mean", "shape": [256], "dtype": "float32"}, {"name": "bn3a_branch2a/moving_variance", "shape": [256], "dtype": "float32"}, {"name": "bn3a_branch2b/gamma", "shape": [128], "dtype": "float32"}, {"name": "bn3a_branch2b/beta", "shape": [128], "dtype": "float32"}, {"name": "bn3a_branch2b/moving_mean", "shape": [128], "dtype": "float32"}, {"name": "bn3a_branch2b/moving_variance", "shape": [128], "dtype": "float32"}, {"name": "bn3a_branch2c/gamma", "shape": [128], "dtype": "float32"}, {"name": "bn3a_branch2c/beta", "shape": [128], "dtype": "float32"}, {"name": "bn3a_branch2c/moving_mean", "shape": [128], "dtype": "float32"}, {"name": "bn3a_branch2c/moving_variance", "shape": [128], "dtype": "float32"}, {"name": "bn3b_branch2a/gamma", "shape": [256], "dtype": "float32"}, {"name": "bn3b_branch2a/beta", "shape": [256], "dtype": "float32"}, {"name": "bn3b_branch2a/moving_mean", "shape": [256], "dtype": "float32"}, {"name": "bn3b_branch2a/moving_variance", "shape": [256], "dtype": "float32"}, {"name": "bn3b_branch2b/gamma", "shape": [128], "dtype": "float32"}, {"name": "bn3b_branch2b/beta", "shape": [128], "dtype": "float32"}, {"name": "bn3b_branch2b/moving_mean", "shape": [128], "dtype": "float32"}, {"name": "bn3b_branch2b/moving_variance", "shape": [128], "dtype": "float32"}, {"name": "bn3b_branch2c/gamma", "shape": [128], "dtype": "float32"}, {"name": "bn3b_branch2c/beta", "shape": [128], "dtype": "float32"}, {"name": "bn3b_branch2c/moving_mean", "shape": [128], "dtype": "float32"}, {"name": "bn3b_branch2c/moving_variance", "shape": [128], "dtype": "float32"}, {"name": "bn3c_branch2a/gamma", "shape": [256], "dtype": "float32"}, {"name": "bn3c_branch2a/beta", "shape": [256], "dtype": "float32"}, {"name": "bn3c_branch2a/moving_mean", "shape": [256], "dtype": "float32"}, {"name": "bn3c_branch2a/moving_variance", "shape": [256], "dtype": "float32"}, {"name": "bn3c_branch2b/gamma", "shape": [128], "dtype": "float32"}, {"name": "bn3c_branch2b/beta", "shape": [128], "dtype": "float32"}, {"name": "bn3c_branch2b/moving_mean", "shape": [128], "dtype": "float32"}, {"name": "bn3c_branch2b/moving_variance", "shape": [128], "dtype": "float32"}, {"name": "bn3c_branch2c/gamma", "shape": [128], "dtype": "float32"}, {"name": "bn3c_branch2c/beta", "shape": [128], "dtype": "float32"}, {"name": "bn3c_branch2c/moving_mean", "shape": [128], "dtype": "float32"}, {"name": "bn3c_branch2c/moving_variance", "shape": [128], "dtype": "float32"}, {"name": "bn3d_branch2a/gamma", "shape": [256], "dtype": "float32"}, {"name": "bn3d_branch2a/beta", "shape": [256], "dtype": "float32"}, {"name": "bn3d_branch2a/moving_mean", "shape": [256], "dtype": "float32"}, {"name": "bn3d_branch2a/moving_variance", "shape": [256], "dtype": "float32"}, {"name": "bn3d_branch2b/gamma", "shape": [128], "dtype": "float32"}, {"name": "bn3d_branch2b/beta", "shape": [128], "dtype": "float32"}, {"name": "bn3d_branch2b/moving_mean", "shape": [128], "dtype": "float32"}, {"name": "bn3d_branch2b/moving_variance", "shape": [128], "dtype": "float32"}, {"name": "bn3d_branch2c/gamma", "shape": [128], "dtype": "float32"}, {"name": "bn3d_branch2c/beta", "shape": [128], "dtype": "float32"}, {"name": "bn3d_branch2c/moving_mean", "shape": [128], "dtype": "float32"}, {"name": "bn3d_branch2c/moving_variance", "shape": [128], "dtype": "float32"}, {"name": "bn4a_branch1/gamma", "shape": [256], "dtype": "float32"}, {"name": "bn4a_branch1/beta", "shape": [256], "dtype": "float32"}, {"name": "bn4a_branch1/moving_mean", "shape": [256], "dtype": "float32"}, {"name": "bn4a_branch1/moving_variance", "shape": [256], "dtype": "float32"}, {"name": "bn4a_branch2a/gamma", "shape": [1024], "dtype": "float32"}, {"name": "bn4a_branch2a/beta", "shape": [1024], "dtype": "float32"}, {"name": "bn4a_branch2a/moving_mean", "shape": [1024], "dtype": "float32"}, {"name": "bn4a_branch2a/moving_variance", "shape": [1024], "dtype": "float32"}, {"name": "bn4a_branch2b/gamma", "shape": [256], "dtype": "float32"}, {"name": "bn4a_branch2b/beta", "shape": [256], "dtype": "float32"}, {"name": "bn4a_branch2b/moving_mean", "shape": [256], "dtype": "float32"}, {"name": "bn4a_branch2b/moving_variance", "shape": [256], "dtype": "float32"}, {"name": "bn4a_branch2c/gamma", "shape": [256], "dtype": "float32"}, {"name": "bn4a_branch2c/beta", "shape": [256], "dtype": "float32"}, {"name": "bn4a_branch2c/moving_mean", "shape": [256], "dtype": "float32"}, {"name": "bn4a_branch2c/moving_variance", "shape": [256], "dtype": "float32"}, {"name": "bn4b_branch2a/gamma", "shape": [1024], "dtype": "float32"}, {"name": "bn4b_branch2a/beta", "shape": [1024], "dtype": "float32"}, {"name": "bn4b_branch2a/moving_mean", "shape": [1024], "dtype": "float32"}, {"name": "bn4b_branch2a/moving_variance", "shape": [1024], "dtype": "float32"}, {"name": "bn4b_branch2b/gamma", "shape": [256], "dtype": "float32"}, {"name": "bn4b_branch2b/beta", "shape": [256], "dtype": "float32"}, {"name": "bn4b_branch2b/moving_mean", "shape": [256], "dtype": "float32"}, {"name": "bn4b_branch2b/moving_variance", "shape": [256], "dtype": "float32"}, {"name": "bn4b_branch2c/gamma", "shape": [256], "dtype": "float32"}, {"name": "bn4b_branch2c/beta", "shape": [256], "dtype": "float32"}, {"name": "bn4b_branch2c/moving_mean", "shape": [256], "dtype": "float32"}, {"name": "bn4b_branch2c/moving_variance", "shape": [256], "dtype": "float32"}, {"name": "bn4c_branch2a/gamma", "shape": [1024], "dtype": "float32"}, {"name": "bn4c_branch2a/beta", "shape": [1024], "dtype": "float32"}, {"name": "bn4c_branch2a/moving_mean", "shape": [1024], "dtype": "float32"}, {"name": "bn4c_branch2a/moving_variance", "shape": [1024], "dtype": "float32"}, {"name": "bn4c_branch2b/gamma", "shape": [256], "dtype": "float32"}, {"name": "bn4c_branch2b/beta", "shape": [256], "dtype": "float32"}, {"name": "bn4c_branch2b/moving_mean", "shape": [256], "dtype": "float32"}, {"name": "bn4c_branch2b/moving_variance", "shape": [256], "dtype": "float32"}, {"name": "bn4c_branch2c/gamma", "shape": [256], "dtype": "float32"}, {"name": "bn4c_branch2c/beta", "shape": [256], "dtype": "float32"}, {"name": "bn4c_branch2c/moving_mean", "shape": [256], "dtype": "float32"}, {"name": "bn4c_branch2c/moving_variance", "shape": [256], "dtype": "float32"}, {"name": "bn4d_branch2a/gamma", "shape": [1024], "dtype": "float32"}, {"name": "bn4d_branch2a/beta", "shape": [1024], "dtype": "float32"}, {"name": "bn4d_branch2a/moving_mean", "shape": [1024], "dtype": "float32"}, {"name": "bn4d_branch2a/moving_variance", "shape": [1024], "dtype": "float32"}, {"name": "bn4d_branch2b/gamma", "shape": [256], "dtype": "float32"}, {"name": "bn4d_branch2b/beta", "shape": [256], "dtype": "float32"}, {"name": "bn4d_branch2b/moving_mean", "shape": [256], "dtype": "float32"}, {"name": "bn4d_branch2b/moving_variance", "shape": [256], "dtype": "float32"}, {"name": "bn4d_branch2c/gamma", "shape": [256], "dtype": "float32"}, {"name": "bn4d_branch2c/beta", "shape": [256], "dtype": "float32"}, {"name": "bn4d_branch2c/moving_mean", "shape": [256], "dtype": "float32"}, {"name": "bn4d_branch2c/moving_variance", "shape": [256], "dtype": "float32"}, {"name": "bn4e_branch2a/gamma", "shape": [1024], "dtype": "float32"}, {"name": "bn4e_branch2a/beta", "shape": [1024], "dtype": "float32"}, {"name": "bn4e_branch2a/moving_mean", "shape": [1024], "dtype": "float32"}, {"name": "bn4e_branch2a/moving_variance", "shape": [1024], "dtype": "float32"}, {"name": "bn4e_branch2b/gamma", "shape": [256], "dtype": "float32"}, {"name": "bn4e_branch2b/beta", "shape": [256], "dtype": "float32"}, {"name": "bn4e_branch2b/moving_mean", "shape": [256], "dtype": "float32"}, {"name": "bn4e_branch2b/moving_variance", "shape": [256], "dtype": "float32"}, {"name": "bn4e_branch2c/gamma", "shape": [256], "dtype": "float32"}, {"name": "bn4e_branch2c/beta", "shape": [256], "dtype": "float32"}, {"name": "bn4e_branch2c/moving_mean", "shape": [256], "dtype": "float32"}, {"name": "bn4e_branch2c/moving_variance", "shape": [256], "dtype": "float32"}, {"name": "bn4f_branch2a/gamma", "shape": [1024], "dtype": "float32"}, {"name": "bn4f_branch2a/beta", "shape": [1024], "dtype": "float32"}, {"name": "bn4f_branch2a/moving_mean", "shape": [1024], "dtype": "float32"}, {"name": "bn4f_branch2a/moving_variance", "shape": [1024], "dtype": "float32"}, {"name": "bn4f_branch2b/gamma", "shape": [256], "dtype": "float32"}, {"name": "bn4f_branch2b/beta", "shape": [256], "dtype": "float32"}, {"name": "bn4f_branch2b/moving_mean", "shape": [256], "dtype": "float32"}, {"name": "bn4f_branch2b/moving_variance", "shape": [256], "dtype": "float32"}, {"name": "bn4f_branch2c/gamma", "shape": [256], "dtype": "float32"}, {"name": "bn4f_branch2c/beta", "shape": [256], "dtype": "float32"}, {"name": "bn4f_branch2c/moving_mean", "shape": [256], "dtype": "float32"}, {"name": "bn4f_branch2c/moving_variance", "shape": [256], "dtype": "float32"}, {"name": "bn4g_branch2a/gamma", "shape": [1024], "dtype": "float32"}, {"name": "bn4g_branch2a/beta", "shape": [1024], "dtype": "float32"}, {"name": "bn4g_branch2a/moving_mean", "shape": [1024], "dtype": "float32"}, {"name": "bn4g_branch2a/moving_variance", "shape": [1024], "dtype": "float32"}, {"name": "bn4g_branch2b/gamma", "shape": [256], "dtype": "float32"}, {"name": "bn4g_branch2b/beta", "shape": [256], "dtype": "float32"}, {"name": "bn4g_branch2b/moving_mean", "shape": [256], "dtype": "float32"}, {"name": "bn4g_branch2b/moving_variance", "shape": [256], "dtype": "float32"}, {"name": "bn4g_branch2c/gamma", "shape": [256], "dtype": "float32"}, {"name": "bn4g_branch2c/beta", "shape": [256], "dtype": "float32"}, {"name": "bn4g_branch2c/moving_mean", "shape": [256], "dtype": "float32"}, {"name": "bn4g_branch2c/moving_variance", "shape": [256], "dtype": "float32"}, {"name": "bn4h_branch2a/gamma", "shape": [1024], "dtype": "float32"}, {"name": "bn4h_branch2a/beta", "shape": [1024], "dtype": "float32"}, {"name": "bn4h_branch2a/moving_mean", "shape": [1024], "dtype": "float32"}, {"name": "bn4h_branch2a/moving_variance", "shape": [1024], "dtype": "float32"}, {"name": "bn4h_branch2b/gamma", "shape": [256], "dtype": "float32"}, {"name": "bn4h_branch2b/beta", "shape": [256], "dtype": "float32"}, {"name": "bn4h_branch2b/moving_mean", "shape": [256], "dtype": "float32"}, {"name": "bn4h_branch2b/moving_variance", "shape": [256], "dtype": "float32"}, {"name": "bn4h_branch2c/gamma", "shape": [256], "dtype": "float32"}, {"name": "bn4h_branch2c/beta", "shape": [256], "dtype": "float32"}, {"name": "bn4h_branch2c/moving_mean", "shape": [256], "dtype": "float32"}, {"name": "bn4h_branch2c/moving_variance", "shape": [256], "dtype": "float32"}, {"name": "bn4i_branch2a/gamma", "shape": [1024], "dtype": "float32"}, {"name": "bn4i_branch2a/beta", "shape": [1024], "dtype": "float32"}, {"name": "bn4i_branch2a/moving_mean", "shape": [1024], "dtype": "float32"}, {"name": "bn4i_branch2a/moving_variance", "shape": [1024], "dtype": "float32"}, {"name": "bn4i_branch2b/gamma", "shape": [256], "dtype": "float32"}, {"name": "bn4i_branch2b/beta", "shape": [256], "dtype": "float32"}, {"name": "bn4i_branch2b/moving_mean", "shape": [256], "dtype": "float32"}, {"name": "bn4i_branch2b/moving_variance", "shape": [256], "dtype": "float32"}, {"name": "bn4i_branch2c/gamma", "shape": [256], "dtype": "float32"}, {"name": "bn4i_branch2c/beta", "shape": [256], "dtype": "float32"}, {"name": "bn4i_branch2c/moving_mean", "shape": [256], "dtype": "float32"}, {"name": "bn4i_branch2c/moving_variance", "shape": [256], "dtype": "float32"}, {"name": "bn4j_branch2a/gamma", "shape": [1024], "dtype": "float32"}, {"name": "bn4j_branch2a/beta", "shape": [1024], "dtype": "float32"}, {"name": "bn4j_branch2a/moving_mean", "shape": [1024], "dtype": "float32"}, {"name": "bn4j_branch2a/moving_variance", "shape": [1024], "dtype": "float32"}, {"name": "bn4j_branch2b/gamma", "shape": [256], "dtype": "float32"}, {"name": "bn4j_branch2b/beta", "shape": [256], "dtype": "float32"}, {"name": "bn4j_branch2b/moving_mean", "shape": [256], "dtype": "float32"}, {"name": "bn4j_branch2b/moving_variance", "shape": [256], "dtype": "float32"}, {"name": "bn4j_branch2c/gamma", "shape": [256], "dtype": "float32"}, {"name": "bn4j_branch2c/beta", "shape": [256], "dtype": "float32"}, {"name": "bn4j_branch2c/moving_mean", "shape": [256], "dtype": "float32"}, {"name": "bn4j_branch2c/moving_variance", "shape": [256], "dtype": "float32"}, {"name": "bn4k_branch2a/gamma", "shape": [1024], "dtype": "float32"}, {"name": "bn4k_branch2a/beta", "shape": [1024], "dtype": "float32"}, {"name": "bn4k_branch2a/moving_mean", "shape": [1024], "dtype": "float32"}, {"name": "bn4k_branch2a/moving_variance", "shape": [1024], "dtype": "float32"}, {"name": "bn4k_branch2b/gamma", "shape": [256], "dtype": "float32"}, {"name": "bn4k_branch2b/beta", "shape": [256], "dtype": "float32"}, {"name": "bn4k_branch2b/moving_mean", "shape": [256], "dtype": "float32"}, {"name": "bn4k_branch2b/moving_variance", "shape": [256], "dtype": "float32"}, {"name": "bn4k_branch2c/gamma", "shape": [256], "dtype": "float32"}, {"name": "bn4k_branch2c/beta", "shape": [256], "dtype": "float32"}, {"name": "bn4k_branch2c/moving_mean", "shape": [256], "dtype": "float32"}, {"name": "bn4k_branch2c/moving_variance", "shape": [256], "dtype": "float32"}, {"name": "bn4l_branch2a/gamma", "shape": [1024], "dtype": "float32"}, {"name": "bn4l_branch2a/beta", "shape": [1024], "dtype": "float32"}, {"name": "bn4l_branch2a/moving_mean", "shape": [1024], "dtype": "float32"}, {"name": "bn4l_branch2a/moving_variance", "shape": [1024], "dtype": "float32"}, {"name": "bn4l_branch2b/gamma", "shape": [256], "dtype": "float32"}, {"name": "bn4l_branch2b/beta", "shape": [256], "dtype": "float32"}, {"name": "bn4l_branch2b/moving_mean", "shape": [256], "dtype": "float32"}, {"name": "bn4l_branch2b/moving_variance", "shape": [256], "dtype": "float32"}, {"name": "bn4l_branch2c/gamma", "shape": [256], "dtype": "float32"}, {"name": "bn4l_branch2c/beta", "shape": [256], "dtype": "float32"}, {"name": "bn4l_branch2c/moving_mean", "shape": [256], "dtype": "float32"}, {"name": "bn4l_branch2c/moving_variance", "shape": [256], "dtype": "float32"}, {"name": "bn4m_branch2a/gamma", "shape": [1024], "dtype": "float32"}, {"name": "bn4m_branch2a/beta", "shape": [1024], "dtype": "float32"}, {"name": "bn4m_branch2a/moving_mean", "shape": [1024], "dtype": "float32"}, {"name": "bn4m_branch2a/moving_variance", "shape": [1024], "dtype": "float32"}, {"name": "bn4m_branch2b/gamma", "shape": [256], "dtype": "float32"}, {"name": "bn4m_branch2b/beta", "shape": [256], "dtype": "float32"}, {"name": "bn4m_branch2b/moving_mean", "shape": [256], "dtype": "float32"}, {"name": "bn4m_branch2b/moving_variance", "shape": [256], "dtype": "float32"}, {"name": "bn4m_branch2c/gamma", "shape": [256], "dtype": "float32"}, {"name": "bn4m_branch2c/beta", "shape": [256], "dtype": "float32"}, {"name": "bn4m_branch2c/moving_mean", "shape": [256], "dtype": "float32"}, {"name": "bn4m_branch2c/moving_variance", "shape": [256], "dtype": "float32"}, {"name": "bn4n_branch2a/gamma", "shape": [1024], "dtype": "float32"}, {"name": "bn4n_branch2a/beta", "shape": [1024], "dtype": "float32"}, {"name": "bn4n_branch2a/moving_mean", "shape": [1024], "dtype": "float32"}, {"name": "bn4n_branch2a/moving_variance", "shape": [1024], "dtype": "float32"}, {"name": "bn4n_branch2b/gamma", "shape": [256], "dtype": "float32"}, {"name": "bn4n_branch2b/beta", "shape": [256], "dtype": "float32"}, {"name": "bn4n_branch2b/moving_mean", "shape": [256], "dtype": "float32"}, {"name": "bn4n_branch2b/moving_variance", "shape": [256], "dtype": "float32"}, {"name": "bn4n_branch2c/gamma", "shape": [256], "dtype": "float32"}, {"name": "bn4n_branch2c/beta", "shape": [256], "dtype": "float32"}, {"name": "bn4n_branch2c/moving_mean", "shape": [256], "dtype": "float32"}, {"name": "bn4n_branch2c/moving_variance", "shape": [256], "dtype": "float32"}, {"name": "bn4o_branch2a/gamma", "shape": [1024], "dtype": "float32"}, {"name": "bn4o_branch2a/beta", "shape": [1024], "dtype": "float32"}, {"name": "bn4o_branch2a/moving_mean", "shape": [1024], "dtype": "float32"}, {"name": "bn4o_branch2a/moving_variance", "shape": [1024], "dtype": "float32"}, {"name": "bn4o_branch2b/gamma", "shape": [256], "dtype": "float32"}, {"name": "bn4o_branch2b/beta", "shape": [256], "dtype": "float32"}, {"name": "bn4o_branch2b/moving_mean", "shape": [256], "dtype": "float32"}, {"name": "bn4o_branch2b/moving_variance", "shape": [256], "dtype": "float32"}, {"name": "bn4o_branch2c/gamma", "shape": [256], "dtype": "float32"}, {"name": "bn4o_branch2c/beta", "shape": [256], "dtype": "float32"}, {"name": "bn4o_branch2c/moving_mean", "shape": [256], "dtype": "float32"}, {"name": "bn4o_branch2c/moving_variance", "shape": [256], "dtype": "float32"}, {"name": "bn4p_branch2a/gamma", "shape": [1024], "dtype": "float32"}, {"name": "bn4p_branch2a/beta", "shape": [1024], "dtype": "float32"}, {"name": "bn4p_branch2a/moving_mean", "shape": [1024], "dtype": "float32"}, {"name": "bn4p_branch2a/moving_variance", "shape": [1024], "dtype": "float32"}, {"name": "bn4p_branch2b/gamma", "shape": [256], "dtype": "float32"}, {"name": "bn4p_branch2b/beta", "shape": [256], "dtype": "float32"}, {"name": "bn4p_branch2b/moving_mean", "shape": [256], "dtype": "float32"}, {"name": "bn4p_branch2b/moving_variance", "shape": [256], "dtype": "float32"}, {"name": "bn4p_branch2c/gamma", "shape": [256], "dtype": "float32"}, {"name": "bn4p_branch2c/beta", "shape": [256], "dtype": "float32"}, {"name": "bn4p_branch2c/moving_mean", "shape": [256], "dtype": "float32"}, {"name": "bn4p_branch2c/moving_variance", "shape": [256], "dtype": "float32"}, {"name": "bn4q_branch2a/gamma", "shape": [1024], "dtype": "float32"}, {"name": "bn4q_branch2a/beta", "shape": [1024], "dtype": "float32"}, {"name": "bn4q_branch2a/moving_mean", "shape": [1024], "dtype": "float32"}, {"name": "bn4q_branch2a/moving_variance", "shape": [1024], "dtype": "float32"}, {"name": "bn4q_branch2b/gamma", "shape": [256], "dtype": "float32"}, {"name": "bn4q_branch2b/beta", "shape": [256], "dtype": "float32"}, {"name": "bn4q_branch2b/moving_mean", "shape": [256], "dtype": "float32"}, {"name": "bn4q_branch2b/moving_variance", "shape": [256], "dtype": "float32"}, {"name": "bn4q_branch2c/gamma", "shape": [256], "dtype": "float32"}, {"name": "bn4q_branch2c/beta", "shape": [256], "dtype": "float32"}, {"name": "bn4q_branch2c/moving_mean", "shape": [256], "dtype": "float32"}, {"name": "bn4q_branch2c/moving_variance", "shape": [256], "dtype": "float32"}, {"name": "bn4r_branch2a/gamma", "shape": [1024], "dtype": "float32"}, {"name": "bn4r_branch2a/beta", "shape": [1024], "dtype": "float32"}, {"name": "bn4r_branch2a/moving_mean", "shape": [1024], "dtype": "float32"}, {"name": "bn4r_branch2a/moving_variance", "shape": [1024], "dtype": "float32"}, {"name": "bn4r_branch2b/gamma", "shape": [256], "dtype": "float32"}, {"name": "bn4r_branch2b/beta", "shape": [256], "dtype": "float32"}, {"name": "bn4r_branch2b/moving_mean", "shape": [256], "dtype": "float32"}, {"name": "bn4r_branch2b/moving_variance", "shape": [256], "dtype": "float32"}, {"name": "bn4r_branch2c/gamma", "shape": [256], "dtype": "float32"}, {"name": "bn4r_branch2c/beta", "shape": [256], "dtype": "float32"}, {"name": "bn4r_branch2c/moving_mean", "shape": [256], "dtype": "float32"}, {"name": "bn4r_branch2c/moving_variance", "shape": [256], "dtype": "float32"}, {"name": "bn4s_branch2a/gamma", "shape": [1024], "dtype": "float32"}, {"name": "bn4s_branch2a/beta", "shape": [1024], "dtype": "float32"}, {"name": "bn4s_branch2a/moving_mean", "shape": [1024], "dtype": "float32"}, {"name": "bn4s_branch2a/moving_variance", "shape": [1024], "dtype": "float32"}, {"name": "bn4s_branch2b/gamma", "shape": [256], "dtype": "float32"}, {"name": "bn4s_branch2b/beta", "shape": [256], "dtype": "float32"}, {"name": "bn4s_branch2b/moving_mean", "shape": [256], "dtype": "float32"}, {"name": "bn4s_branch2b/moving_variance", "shape": [256], "dtype": "float32"}, {"name": "bn4s_branch2c/gamma", "shape": [256], "dtype": "float32"}, {"name": "bn4s_branch2c/beta", "shape": [256], "dtype": "float32"}, {"name": "bn4s_branch2c/moving_mean", "shape": [256], "dtype": "float32"}, {"name": "bn4s_branch2c/moving_variance", "shape": [256], "dtype": "float32"}, {"name": "bn4t_branch2a/gamma", "shape": [1024], "dtype": "float32"}, {"name": "bn4t_branch2a/beta", "shape": [1024], "dtype": "float32"}, {"name": "bn4t_branch2a/moving_mean", "shape": [1024], "dtype": "float32"}, {"name": "bn4t_branch2a/moving_variance", "shape": [1024], "dtype": "float32"}, {"name": "bn4t_branch2b/gamma", "shape": [256], "dtype": "float32"}, {"name": "bn4t_branch2b/beta", "shape": [256], "dtype": "float32"}, {"name": "bn4t_branch2b/moving_mean", "shape": [256], "dtype": "float32"}, {"name": "bn4t_branch2b/moving_variance", "shape": [256], "dtype": "float32"}, {"name": "bn4t_branch2c/gamma", "shape": [256], "dtype": "float32"}, {"name": "bn4t_branch2c/beta", "shape": [256], "dtype": "float32"}, {"name": "bn4t_branch2c/moving_mean", "shape": [256], "dtype": "float32"}, {"name": "bn4t_branch2c/moving_variance", "shape": [256], "dtype": "float32"}, {"name": "bn4u_branch2a/gamma", "shape": [1024], "dtype": "float32"}, {"name": "bn4u_branch2a/beta", "shape": [1024], "dtype": "float32"}, {"name": "bn4u_branch2a/moving_mean", "shape": [1024], "dtype": "float32"}, {"name": "bn4u_branch2a/moving_variance", "shape": [1024], "dtype": "float32"}, {"name": "bn4u_branch2b/gamma", "shape": [256], "dtype": "float32"}, {"name": "bn4u_branch2b/beta", "shape": [256], "dtype": "float32"}, {"name": "bn4u_branch2b/moving_mean", "shape": [256], "dtype": "float32"}, {"name": "bn4u_branch2b/moving_variance", "shape": [256], "dtype": "float32"}, {"name": "bn4u_branch2c/gamma", "shape": [256], "dtype": "float32"}, {"name": "bn4u_branch2c/beta", "shape": [256], "dtype": "float32"}, {"name": "bn4u_branch2c/moving_mean", "shape": [256], "dtype": "float32"}, {"name": "bn4u_branch2c/moving_variance", "shape": [256], "dtype": "float32"}, {"name": "bn4v_branch2a/gamma", "shape": [1024], "dtype": "float32"}, {"name": "bn4v_branch2a/beta", "shape": [1024], "dtype": "float32"}, {"name": "bn4v_branch2a/moving_mean", "shape": [1024], "dtype": "float32"}, {"name": "bn4v_branch2a/moving_variance", "shape": [1024], "dtype": "float32"}, {"name": "bn4v_branch2b/gamma", "shape": [256], "dtype": "float32"}, {"name": "bn4v_branch2b/beta", "shape": [256], "dtype": "float32"}, {"name": "bn4v_branch2b/moving_mean", "shape": [256], "dtype": "float32"}, {"name": "bn4v_branch2b/moving_variance", "shape": [256], "dtype": "float32"}, {"name": "bn4v_branch2c/gamma", "shape": [256], "dtype": "float32"}, {"name": "bn4v_branch2c/beta", "shape": [256], "dtype": "float32"}, {"name": "bn4v_branch2c/moving_mean", "shape": [256], "dtype": "float32"}, {"name": "bn4v_branch2c/moving_variance", "shape": [256], "dtype": "float32"}, {"name": "bn4w_branch2a/gamma", "shape": [1024], "dtype": "float32"}, {"name": "bn4w_branch2a/beta", "shape": [1024], "dtype": "float32"}, {"name": "bn4w_branch2a/moving_mean", "shape": [1024], "dtype": "float32"}, {"name": "bn4w_branch2a/moving_variance", "shape": [1024], "dtype": "float32"}, {"name": "bn4w_branch2b/gamma", "shape": [256], "dtype": "float32"}, {"name": "bn4w_branch2b/beta", "shape": [256], "dtype": "float32"}, {"name": "bn4w_branch2b/moving_mean", "shape": [256], "dtype": "float32"}, {"name": "bn4w_branch2b/moving_variance", "shape": [256], "dtype": "float32"}, {"name": "bn4w_branch2c/gamma", "shape": [256], "dtype": "float32"}, {"name": "bn4w_branch2c/beta", "shape": [256], "dtype": "float32"}, {"name": "bn4w_branch2c/moving_mean", "shape": [256], "dtype": "float32"}, {"name": "bn4w_branch2c/moving_variance", "shape": [256], "dtype": "float32"}, {"name": "bn5a_branch1/gamma", "shape": [512], "dtype": "float32"}, {"name": "bn5a_branch1/beta", "shape": [512], "dtype": "float32"}, {"name": "bn5a_branch1/moving_mean", "shape": [512], "dtype": "float32"}, {"name": "bn5a_branch1/moving_variance", "shape": [512], "dtype": "float32"}, {"name": "bn5a_branch2a/gamma", "shape": [2048], "dtype": "float32"}, {"name": "bn5a_branch2a/beta", "shape": [2048], "dtype": "float32"}, {"name": "bn5a_branch2a/moving_mean", "shape": [2048], "dtype": "float32"}, {"name": "bn5a_branch2a/moving_variance", "shape": [2048], "dtype": "float32"}, {"name": "bn5a_branch2b/gamma", "shape": [512], "dtype": "float32"}, {"name": "bn5a_branch2b/beta", "shape": [512], "dtype": "float32"}, {"name": "bn5a_branch2b/moving_mean", "shape": [512], "dtype": "float32"}, {"name": "bn5a_branch2b/moving_variance", "shape": [512], "dtype": "float32"}, {"name": "bn5a_branch2c/gamma", "shape": [512], "dtype": "float32"}, {"name": "bn5a_branch2c/beta", "shape": [512], "dtype": "float32"}, {"name": "bn5a_branch2c/moving_mean", "shape": [512], "dtype": "float32"}, {"name": "bn5a_branch2c/moving_variance", "shape": [512], "dtype": "float32"}, {"name": "bn5b_branch2a/gamma", "shape": [2048], "dtype": "float32"}, {"name": "bn5b_branch2a/beta", "shape": [2048], "dtype": "float32"}, {"name": "bn5b_branch2a/moving_mean", "shape": [2048], "dtype": "float32"}, {"name": "bn5b_branch2a/moving_variance", "shape": [2048], "dtype": "float32"}, {"name": "bn5b_branch2b/gamma", "shape": [512], "dtype": "float32"}, {"name": "bn5b_branch2b/beta", "shape": [512], "dtype": "float32"}, {"name": "bn5b_branch2b/moving_mean", "shape": [512], "dtype": "float32"}, {"name": "bn5b_branch2b/moving_variance", "shape": [512], "dtype": "float32"}, {"name": "bn5b_branch2c/gamma", "shape": [512], "dtype": "float32"}, {"name": "bn5b_branch2c/beta", "shape": [512], "dtype": "float32"}, {"name": "bn5b_branch2c/moving_mean", "shape": [512], "dtype": "float32"}, {"name": "bn5b_branch2c/moving_variance", "shape": [512], "dtype": "float32"}, {"name": "bn5c_branch2a/gamma", "shape": [2048], "dtype": "float32"}, {"name": "bn5c_branch2a/beta", "shape": [2048], "dtype": "float32"}, {"name": "bn5c_branch2a/moving_mean", "shape": [2048], "dtype": "float32"}, {"name": "bn5c_branch2a/moving_variance", "shape": [2048], "dtype": "float32"}, {"name": "bn5c_branch2b/gamma", "shape": [512], "dtype": "float32"}, {"name": "bn5c_branch2b/beta", "shape": [512], "dtype": "float32"}, {"name": "bn5c_branch2b/moving_mean", "shape": [512], "dtype": "float32"}, {"name": "bn5c_branch2b/moving_variance", "shape": [512], "dtype": "float32"}, {"name": "bn5c_branch2c/gamma", "shape": [512], "dtype": "float32"}, {"name": "bn5c_branch2c/beta", "shape": [512], "dtype": "float32"}, {"name": "bn5c_branch2c/moving_mean", "shape": [512], "dtype": "float32"}, {"name": "bn5c_branch2c/moving_variance", "shape": [512], "dtype": "float32"}, {"name": "bn_conv1/gamma", "shape": [64], "dtype": "float32"}, {"name": "bn_conv1/beta", "shape": [64], "dtype": "float32"}, {"name": "bn_conv1/moving_mean", "shape": [64], "dtype": "float32"}, {"name": "bn_conv1/moving_variance", "shape": [64], "dtype": "float32"}, {"name": "class_psp_1_bn/gamma", "shape": [512], "dtype": "float32"}, {"name": "class_psp_1_bn/beta", "shape": [512], "dtype": "float32"}, {"name": "class_psp_1_bn/moving_mean", "shape": [512], "dtype": "float32"}, {"name": "class_psp_1_bn/moving_variance", "shape": [512], "dtype": "float32"}, {"name": "class_psp_1_conv/kernel", "shape": [1, 1, 512, 512], "dtype": "float32"}, {"name": "class_psp_2_bn/gamma", "shape": [512], "dtype": "float32"}, {"name": "class_psp_2_bn/beta", "shape": [512], "dtype": "float32"}, {"name": "class_psp_2_bn/moving_mean", "shape": [512], "dtype": "float32"}, {"name": "class_psp_2_bn/moving_variance", "shape": [512], "dtype": "float32"}, {"name": "class_psp_2_conv/kernel", "shape": [1, 1, 512, 512], "dtype": "float32"}, {"name": "class_psp_3_bn/gamma", "shape": [512], "dtype": "float32"}, {"name": "class_psp_3_bn/beta", "shape": [512], "dtype": "float32"}, {"name": "class_psp_3_bn/moving_mean", "shape": [512], "dtype": "float32"}, {"name": "class_psp_3_bn/moving_variance", "shape": [512], "dtype": "float32"}, {"name": "class_psp_3_conv/kernel", "shape": [1, 1, 512, 512], "dtype": "float32"}, {"name": "class_psp_6_bn/gamma", "shape": [512], "dtype": "float32"}, {"name": "class_psp_6_bn/beta", "shape": [512], "dtype": "float32"}, {"name": "class_psp_6_bn/moving_mean", "shape": [512], "dtype": "float32"}, {"name": "class_psp_6_bn/moving_variance", "shape": [512], "dtype": "float32"}, {"name": "class_psp_6_conv/kernel", "shape": [1, 1, 512, 512], "dtype": "float32"}, {"name": "class_psp_final_conv/kernel", "shape": [1, 1, 512, 1], "dtype": "float32"}, {"name": "class_psp_final_conv/bias", "shape": [1], "dtype": "float32"}, {"name": "class_psp_reduce_bn/gamma", "shape": [512], "dtype": "float32"}, {"name": "class_psp_reduce_bn/beta", "shape": [512], "dtype": "float32"}, {"name": "class_psp_reduce_bn/moving_mean", "shape": [512], "dtype": "float32"}, {"name": "class_psp_reduce_bn/moving_variance", "shape": [512], "dtype": "float32"}, {"name": "class_psp_reduce_conv/kernel", "shape": [1, 1, 2560, 512], "dtype": "float32"}, {"name": "conv1/kernel", "shape": [7, 7, 3, 64], "dtype": "float32"}, {"name": "res2a_branch1/kernel", "shape": [1, 1, 64, 64], "dtype": "float32"}, {"name": "res2a_branch2a/kernel", "shape": [1, 1, 64, 256], "dtype": "float32"}, {"name": "res2a_branch2b/kernel", "shape": [3, 3, 256, 64], "dtype": "float32"}, {"name": "res2a_branch2c/kernel", "shape": [1, 1, 64, 64], "dtype": "float32"}, {"name": "res2b_branch2a/kernel", "shape": [1, 1, 64, 256], "dtype": "float32"}, {"name": "res2b_branch2b/kernel", "shape": [3, 3, 256, 64], "dtype": "float32"}, {"name": "res2b_branch2c/kernel", "shape": [1, 1, 64, 64], "dtype": "float32"}, {"name": "res2c_branch2a/kernel", "shape": [1, 1, 64, 256], "dtype": "float32"}, {"name": "res2c_branch2b/kernel", "shape": [3, 3, 256, 64], "dtype": "float32"}, {"name": "res2c_branch2c/kernel", "shape": [1, 1, 64, 64], "dtype": "float32"}, {"name": "res3a_branch1/kernel", "shape": [1, 1, 64, 128], "dtype": "float32"}, {"name": "res3a_branch2a/kernel", "shape": [1, 1, 64, 256], "dtype": "float32"}, {"name": "res3a_branch2b/kernel", "shape": [3, 3, 256, 128], "dtype": "float32"}, {"name": "res3a_branch2c/kernel", "shape": [1, 1, 128, 128], "dtype": "float32"}, {"name": "res3b_branch2a/kernel", "shape": [1, 1, 128, 256], "dtype": "float32"}, {"name": "res3b_branch2b/kernel", "shape": [3, 3, 256, 128], "dtype": "float32"}, {"name": "res3b_branch2c/kernel", "shape": [1, 1, 128, 128], "dtype": "float32"}, {"name": "res3c_branch2a/kernel", "shape": [1, 1, 128, 256], "dtype": "float32"}, {"name": "res3c_branch2b/kernel", "shape": [3, 3, 256, 128], "dtype": "float32"}, {"name": "res3c_branch2c/kernel", "shape": [1, 1, 128, 128], "dtype": "float32"}, {"name": "res3d_branch2a/kernel", "shape": [1, 1, 128, 256], "dtype": "float32"}, {"name": "res3d_branch2b/kernel", "shape": [3, 3, 256, 128], "dtype": "float32"}, {"name": "res3d_branch2c/kernel", "shape": [1, 1, 128, 128], "dtype": "float32"}, {"name": "res4a_branch1/kernel", "shape": [1, 1, 128, 256], "dtype": "float32"}, {"name": "res4a_branch2a/kernel", "shape": [1, 1, 128, 1024], "dtype": "float32"}, {"name": "res4a_branch2b/kernel", "shape": [3, 3, 1024, 256], "dtype": "float32"}, {"name": "res4a_branch2c/kernel", "shape": [1, 1, 256, 256], "dtype": "float32"}, {"name": "res4b_branch2a/kernel", "shape": [1, 1, 256, 1024], "dtype": "float32"}, {"name": "res4b_branch2b/kernel", "shape": [3, 3, 1024, 256], "dtype": "float32"}, {"name": "res4b_branch2c/kernel", "shape": [1, 1, 256, 256], "dtype": "float32"}, {"name": "res4c_branch2a/kernel", "shape": [1, 1, 256, 1024], "dtype": "float32"}, {"name": "res4c_branch2b/kernel", "shape": [3, 3, 1024, 256], "dtype": "float32"}, {"name": "res4c_branch2c/kernel", "shape": [1, 1, 256, 256], "dtype": "float32"}, {"name": "res4d_branch2a/kernel", "shape": [1, 1, 256, 1024], "dtype": "float32"}, {"name": "res4d_branch2b/kernel", "shape": [3, 3, 1024, 256], "dtype": "float32"}, {"name": "res4d_branch2c/kernel", "shape": [1, 1, 256, 256], "dtype": "float32"}, {"name": "res4e_branch2a/kernel", "shape": [1, 1, 256, 1024], "dtype": "float32"}, {"name": "res4e_branch2b/kernel", "shape": [3, 3, 1024, 256], "dtype": "float32"}, {"name": "res4e_branch2c/kernel", "shape": [1, 1, 256, 256], "dtype": "float32"}, {"name": "res4f_branch2a/kernel", "shape": [1, 1, 256, 1024], "dtype": "float32"}, {"name": "res4f_branch2b/kernel", "shape": [3, 3, 1024, 256], "dtype": "float32"}, {"name": "res4f_branch2c/kernel", "shape": [1, 1, 256, 256], "dtype": "float32"}, {"name": "res4g_branch2a/kernel", "shape": [1, 1, 256, 1024], "dtype": "float32"}, {"name": "res4g_branch2b/kernel", "shape": [3, 3, 1024, 256], "dtype": "float32"}, {"name": "res4g_branch2c/kernel", "shape": [1, 1, 256, 256], "dtype": "float32"}, {"name": "res4h_branch2a/kernel", "shape": [1, 1, 256, 1024], "dtype": "float32"}, {"name": "res4h_branch2b/kernel", "shape": [3, 3, 1024, 256], "dtype": "float32"}, {"name": "res4h_branch2c/kernel", "shape": [1, 1, 256, 256], "dtype": "float32"}, {"name": "res4i_branch2a/kernel", "shape": [1, 1, 256, 1024], "dtype": "float32"}, {"name": "res4i_branch2b/kernel", "shape": [3, 3, 1024, 256], "dtype": "float32"}, {"name": "res4i_branch2c/kernel", "shape": [1, 1, 256, 256], "dtype": "float32"}, {"name": "res4j_branch2a/kernel", "shape": [1, 1, 256, 1024], "dtype": "float32"}, {"name": "res4j_branch2b/kernel", "shape": [3, 3, 1024, 256], "dtype": "float32"}, {"name": "res4j_branch2c/kernel", "shape": [1, 1, 256, 256], "dtype": "float32"}, {"name": "res4k_branch2a/kernel", "shape": [1, 1, 256, 1024], "dtype": "float32"}, {"name": "res4k_branch2b/kernel", "shape": [3, 3, 1024, 256], "dtype": "float32"}, {"name": "res4k_branch2c/kernel", "shape": [1, 1, 256, 256], "dtype": "float32"}, {"name": "res4l_branch2a/kernel", "shape": [1, 1, 256, 1024], "dtype": "float32"}, {"name": "res4l_branch2b/kernel", "shape": [3, 3, 1024, 256], "dtype": "float32"}, {"name": "res4l_branch2c/kernel", "shape": [1, 1, 256, 256], "dtype": "float32"}, {"name": "res4m_branch2a/kernel", "shape": [1, 1, 256, 1024], "dtype": "float32"}, {"name": "res4m_branch2b/kernel", "shape": [3, 3, 1024, 256], "dtype": "float32"}, {"name": "res4m_branch2c/kernel", "shape": [1, 1, 256, 256], "dtype": "float32"}, {"name": "res4n_branch2a/kernel", "shape": [1, 1, 256, 1024], "dtype": "float32"}, {"name": "res4n_branch2b/kernel", "shape": [3, 3, 1024, 256], "dtype": "float32"}, {"name": "res4n_branch2c/kernel", "shape": [1, 1, 256, 256], "dtype": "float32"}, {"name": "res4o_branch2a/kernel", "shape": [1, 1, 256, 1024], "dtype": "float32"}, {"name": "res4o_branch2b/kernel", "shape": [3, 3, 1024, 256], "dtype": "float32"}, {"name": "res4o_branch2c/kernel", "shape": [1, 1, 256, 256], "dtype": "float32"}, {"name": "res4p_branch2a/kernel", "shape": [1, 1, 256, 1024], "dtype": "float32"}, {"name": "res4p_branch2b/kernel", "shape": [3, 3, 1024, 256], "dtype": "float32"}, {"name": "res4p_branch2c/kernel", "shape": [1, 1, 256, 256], "dtype": "float32"}, {"name": "res4q_branch2a/kernel", "shape": [1, 1, 256, 1024], "dtype": "float32"}, {"name": "res4q_branch2b/kernel", "shape": [3, 3, 1024, 256], "dtype": "float32"}, {"name": "res4q_branch2c/kernel", "shape": [1, 1, 256, 256], "dtype": "float32"}, {"name": "res4r_branch2a/kernel", "shape": [1, 1, 256, 1024], "dtype": "float32"}, {"name": "res4r_branch2b/kernel", "shape": [3, 3, 1024, 256], "dtype": "float32"}, {"name": "res4r_branch2c/kernel", "shape": [1, 1, 256, 256], "dtype": "float32"}, {"name": "res4s_branch2a/kernel", "shape": [1, 1, 256, 1024], "dtype": "float32"}, {"name": "res4s_branch2b/kernel", "shape": [3, 3, 1024, 256], "dtype": "float32"}, {"name": "res4s_branch2c/kernel", "shape": [1, 1, 256, 256], "dtype": "float32"}, {"name": "res4t_branch2a/kernel", "shape": [1, 1, 256, 1024], "dtype": "float32"}, {"name": "res4t_branch2b/kernel", "shape": [3, 3, 1024, 256], "dtype": "float32"}, {"name": "res4t_branch2c/kernel", "shape": [1, 1, 256, 256], "dtype": "float32"}, {"name": "res4u_branch2a/kernel", "shape": [1, 1, 256, 1024], "dtype": "float32"}, {"name": "res4u_branch2b/kernel", "shape": [3, 3, 1024, 256], "dtype": "float32"}, {"name": "res4u_branch2c/kernel", "shape": [1, 1, 256, 256], "dtype": "float32"}, {"name": "res4v_branch2a/kernel", "shape": [1, 1, 256, 1024], "dtype": "float32"}, {"name": "res4v_branch2b/kernel", "shape": [3, 3, 1024, 256], "dtype": "float32"}, {"name": "res4v_branch2c/kernel", "shape": [1, 1, 256, 256], "dtype": "float32"}, {"name": "res4w_branch2a/kernel", "shape": [1, 1, 256, 1024], "dtype": "float32"}, {"name": "res4w_branch2b/kernel", "shape": [3, 3, 1024, 256], "dtype": "float32"}, {"name": "res4w_branch2c/kernel", "shape": [1, 1, 256, 256], "dtype": "float32"}, {"name": "res5a_branch1/kernel", "shape": [1, 1, 256, 512], "dtype": "float32"}, {"name": "res5a_branch2a/kernel", "shape": [1, 1, 256, 2048], "dtype": "float32"}, {"name": "res5a_branch2b/kernel", "shape": [3, 3, 2048, 512], "dtype": "float32"}, {"name": "res5a_branch2c/kernel", "shape": [1, 1, 512, 512], "dtype": "float32"}, {"name": "res5b_branch2a/kernel", "shape": [1, 1, 512, 2048], "dtype": "float32"}, {"name": "res5b_branch2b/kernel", "shape": [3, 3, 2048, 512], "dtype": "float32"}, {"name": "res5b_branch2c/kernel", "shape": [1, 1, 512, 512], "dtype": "float32"}, {"name": "res5c_branch2a/kernel", "shape": [1, 1, 512, 2048], "dtype": "float32"}, {"name": "res5c_branch2b/kernel", "shape": [3, 3, 2048, 512], "dtype": "float32"}, {"name": "res5c_branch2c/kernel", "shape": [1, 1, 512, 512], "dtype": "float32"}]}]}